ml-prediction/exoplanet_classifier.pth (torch, 276247 bytes, 20 tensors)

network.0.weight f4 [92]
1.1827577 0.9305095 0.91636115 2.1594002e-05 1.015139 0.8522943 1.0087483 1.1561992
1.0498874 1.0200621 1.1354567 0.9335107 0.95706475 0.90446436 0.8222851 0.8597682
0.9411236 0.9422095 0.91898525 0.9460993 1.0022779 0.95572513 1.0207044 1.0342028
1.0600402 0.8259011 0.91809726 0.79266506 0.89019096 0.9172424 0.8594777 2.1594002e-05
2.1594002e-05 0.88825965 0.84189904 1.0868601 0.9695269 0.9939119 0.99652463 1.1414247
0.9875087 0.99566996 0.96818054 0.9564496 1.0257325 0.91992605 0.88206506 1.0243015
1.0628048 0.91413814 1.0695183 0.7173921 0.9343742 0.7870367 0.9268835 0.9211083
0.87934476 0.95428914 1.0579531 0.8287841 0.8610047 0.7785522 0.8420215 0.80590355
0.7305198 0.83139974 0.7460765 1.0584949 0.9565407 0.92627776 0.95046926 0.8554544
1.2823577 0.939306 1.2113067 0.9194661 0.940517 0.8703121 1.016846 0.9202624
1.0164156 0.89403933 0.93926877 0.84827554 0.9983551 0.820895 1.0577296 0.85907185
0.9933386 0.83611214 1.2295468 0.8824078
00000000: 9b64 973f df35 6e3f a596 6a3f c424 b537
00000010: 13f0 813f f62f 5a3f aa1e 813f 56fe 933f
00000020: b662 863f 6591 823f a556 913f 8ffa 6e3f
00000030: 3202 753f fa8a 673f 4781 523f c519 5c3f
00000040: 7aed 703f a434 713f 9e42 6b3f 9033 723f
00000050: a44a 803f 67aa 743f 71a6 823f c260 843f
00000060: 66af 873f 416e 533f 6c08 6b3f 19ec 4a3f
00000070: 8ee3 633f 66d0 6a3f bb06 5c3f c424 b537
00000080: c424 b537 fc64 633f b286 573f 3b1e 8b3f
00000090: ea32 783f 0371 7e3f 3d1c 7f3f 341a 923f
000000a0: 5fcd 7c3f 3ae4 7e3f aeda 773f e2d9 743f
000000b0: 344b 833f 4680 6b3f 04cf 613f 501c 833f
000000c0: fd09 883f f504 6a3f fae5 883f 02a7 373f
000000d0: 2633 6f3f 3d7b 493f 3d48 6d3f c1cd 6b3f
000000e0: bd1c 613f 4b4c 743f 026b 873f 322b 543f
000000f0: ce6a 5c3f 324f 473f b98e 573f b24f 4e3f
00000100: 5803 3b3f 9dd6 543f dffe 3e3f c37c 873f
00000110: dadf 743f 8a20 6d3f f451 733f 0fff 5a3f
00000120: 4c24 a43f 5c76 703f 190c 9b3f 2162 6b3f
00000130: b9c5 703f c6cc 5e3f 0228 823f 5196 6b3f
00000140: e819 823f c3df 643f eb73 703f 9628 593f
00000150: 3394 7f3f 2d26 523f af63 873f 22ec 5b3f
00000160: 704b 7e3f 720b 563f ca61 9d3f 7ae5 613f

network.0.bias f4 [92]
0.10784755 0.16005243 0.006580131 0.4611233 0.086651385 0.16662516 0.09477088 0.14901389
0.20300376 -0.087456405 0.20138086 0.16447523 -0.08918636 0.094234414 0.2016627 -0.048296925
0.11644703 0.27401155 -0.12475718 0.223036 0.12480131 -0.120949596 0.026575001 -0.13654345
0.16294333 0.06432499 0.13942291 -0.108567104 0.10325607 0.22098194 -0.13791798 -0.5645069
0.5564427 0.024742555 0.064491905 0.12646012 0.078753695 0.14523634 0.036125734 0.12760925
-0.022500237 0.0591764 0.11206005 0.16375774 0.027120693 -0.24684371 0.042130206 0.053765923
0.07133521 -0.16875093 -0.1287084 0.098485656 0.16603048 -0.14226776 0.021105781 0.13181765
-0.11471031 -0.030482965 0.01905796 -0.124658175 -0.15913773 0.0066095176 -0.08670887 0.031560965
-0.088601455 -0.104066186 -0.061168917 -0.04759307 -0.03606437 -0.017684987 -0.09794864 0.057942472
0.107564785 -0.010800723 -0.047625937 -0.16320524 -0.06279039 0.21427613 0.057967804 0.11927078
-0.028553685 0.05836537 0.056311656 -0.08888641 0.1929415 -0.04412505 -0.16846108 0.120350495
-0.1000583 -0.052213654 0.1015932 0.0636388
00000000: 2ddf dc3d c9e4 233e 249e d73b 5a18 ec3e
00000010: 4876 b13d c99f 2a3e 3c17 c23d 1997 183e
00000020: 38e0 4f3e 581c b3bd c936 4e3e 326c 283e
00000030: 57a7 b6bd f9fd c03d ab80 4e3e ffd2 45bd
00000040: c87b ee3d 3e4b 8c3e b180 ffbd 8d63 643e
00000050: d497 ff3d 6cb4 f7bd d1b3 d93c 0cd2 0bbe
00000060: 9eda 263e d2bc 833d e1c4 0e3e 6e58 debd
00000070: eb77 d33d 1749 623e 5f3a 0dbe 8683 10bf
00000080: 0773 0e3f e6b0 ca3c 5514 843d c37e 013e
00000090: 9e49 a13d d6b8 143e 94f8 133d 00ac 023e
000000a0: 6b52 b8bc f462 723d bd7f e53d 1cb0 273e
000000b0: 372c de3c 99c4 7cbe b990 2c3d a839 5c3d
000000c0: 3218 923d 0bcd 2cbe 23cc 03be d9b2 c93d
000000d0: e503 2a3e a4ae 11be 08e6 ac3c 35fb 063e
000000e0: 3ded eabd 69b7 f9bc 701f 9c3c c94c ffbd
000000f0: 00f5 22be a794 d83b 6c94 b1bd 1246 013d
00000100: ae74 b5bd a720 d5bd 428c 7abd f3f0 42bd
00000110: 3cb8 13bd 1be0 90bc 4c99 c8bd 1655 6d3d
00000120: ed4a dc3d 84f5 30bc 6a13 43bd 461f 27be
00000130: 3f98 80bd 346b 5b3e a66f 6d3d 3d44 f43d
00000140: 6be9 e9bc 8710 6f3d 0da7 663d 140a b6bd
00000150: 7592 453e 78bc 34bd 1081 2cbe 527a f63d
00000160: 5eeb ccbd fcdd 55bd 1810 d03d 0f55 823d

network.0.running_mean f4 [92]
0.07265907 -0.011748081 0.011748081 0.0 -0.010600723 0.027946077 0.013846975 -0.06654108
-0.047384724 0.047384724 -0.013807945 -0.0075646895 0.0075646895 -0.013702077 0.027509814 0.012842173
-0.027773779 0.028412344 0.03480202 -0.007979682 -0.005346113 0.00960014 0.06032042 0.053097628
-0.028348072 0.009655506 0.0012137907 -0.018061731 0.07085934 0.070996515 -0.070996515 0.0
0.0 -0.0728587 0.08050495 -0.024896858 -0.02713182 -0.05107297 0.035051055 -0.03087956
0.03291811 0.0036987897 -0.07647872 -0.050207593 0.06385844 0.002135429 -0.02302217 0.08523867
0.015685143 -0.008346916 0.020198816 0.026909502 -0.0020090928 -0.0061579267 -0.030154616 -0.020167619
0.0051293448 -0.018725293 -0.031120524 0.016975783 0.02269241 0.017360255 0.025398398 0.007919568
-0.003508905 -0.010440118 -0.00971556 0.013263456 -0.02863527 0.0014253444 -0.040570445 -0.0012127016
0.009465644 0.0025910689 0.01819303 -0.0013342806 -0.01290335 0.03924236 -0.040945977 0.038773626
-0.027054239 -0.004931084 0.0072890553 -0.0016063934 -0.01718004 -0.0015956751 -0.0032309461 0.0011275636
-0.00015669572 0.0027431434 0.009353986 0.0037044827
00000000: 47ce 943d 067b 40bc 067b 403c 0000 0000
00000010: a8ae 2dbc 2cef e43c 6cde 623c b146 88bd
00000020: 7c16 42bd 7c16 423d b83a 62bc 37e1 f7bb
00000030: 37e1 f73b ad7e 60bc 435c e13c fa67 523c
00000040: d685 e3bc 01c1 e83c 908c 0e3d 36bd 02bc
00000050: 722e afbb e849 1d3c 8b12 773d e67c 593d
00000060: 373a e8bc 2132 1e3c 0f18 9f3a 32f6 93bc
00000070: b41e 913d 9f66 913d 9f66 91bd 0000 0000
00000080: 0000 0000 f136 95bd c7df a43d 7ff4 cbbc
00000090: 8d43 debc e431 51bd b291 0f3d 22f7 fcbc
000000a0: 24d5 063d 6567 723b e0a0 9cbd 7aa6 4dbd
000000b0: 37c8 823d 8ef2 0b3b fd98 bcbc 9d91 ae3d
000000c0: 217e 803c 81c1 08bc fd77 a53c 5171 dc3c
000000d0: fcaa 03bb 6fc8 c9bb d006 f7bc 9036 a5bc
000000e0: 1014 a83b c965 99bc 78f0 febc cc10 8b3c
000000f0: 6fe5 b93c 1837 8e3c 4d10 d03c 13c1 013c
00000100: a8f5 65bb 070d 2bbc 032e 1fbc f74e 593c
00000110: 8494 eabc 9fd2 ba3a 322d 26bd 83f3 9eba
00000120: ca15 1b3c ecce 293b 8d09 953c 07e3 aeba
00000130: 9368 53bc 99bc 203d f8b6 27bd 18d1 1e3d
00000140: daa0 ddbc ee94 a1bb 07d9 ee3b 9e8d d2ba
00000150: 28bd 8cbc f925 d1ba 48be 53bb c2ca 933a
00000160: b04e 24b9 4fc6 333b 7641 193c e8c6 723b

network.0.running_var f4 [92]
7.8787684 0.8950441 0.8950441 6e-45 0.5026204 1.1253028 0.50407106 0.676022
0.7095938 0.7095938 0.9110859 0.03144414 0.03144414 0.49489883 1.1263003 0.49648082
0.534743 1.2650393 0.61424315 0.59365296 1.1185948 0.41440013 5.710653 0.8019995
1.0488479 1.3360436 1.0120145 2.3850482 7.6775255 7.681619 7.681619 6e-45
6e-45 1.129558 1.0882555 0.6054623 0.8152658 0.70605654 1.0916132 0.9727914
0.9552112 0.9591341 1.071659 0.8856478 0.69182086 1.1355305 0.9866581 0.89490026
0.94098026 1.0280542 0.96933275 1.6774614 1.0313601 1.0101951 1.054436 1.200977
1.1444765 0.99799615 1.0178319 1.0204694 1.0104804 1.0246564 0.95930946 0.98123044
1.0334744 1.0407568 1.0463239 1.0227083 1.0067898 1.0490727 1.0224344 1.0498912
0.25328454 1.0347246 0.567742 1.0397798 0.48545614 3.3120987 2.7611907 3.2304404
0.9062343 1.3673532 0.9668202 1.1031653 0.93289757 1.2979784 0.95813745 1.437819
1.0407143 1.2476523 0.98227185 1.3953103
00000000: df1e fc40 9c21 653f 9c21 653f 0400 0000
00000010: bbab 003f ec09 903f cd0a 013f c70f 2d3f
00000020: f0a7 353f f0a7 353f ed3c 693f 92cb 003d
00000030: 92cb 003d 6163 fd3e 9c2a 903f bc32 fe3e
00000040: ebe4 083f cfec a13f 0a3f 1d3f a4f9 173f
00000050: 1d2e 8f3f 412c d43e abbd b640 d74f 4d3f
00000060: a640 863f 7a03 ab3f b189 813f a1a4 1840
00000070: 4aae f540 d3cf f540 d3cf f540 0400 0000
00000080: 0400 0000 5b95 903f f54b 8b3f 94ff 1a3f
00000090: 42b5 503f 1fc0 343f fbb9 8b3f db08 793f
000000a0: b988 743f d089 753f 1f2c 893f d0b9 623f
000000b0: 2c1b 313f 1059 913f a095 7c3f 2f18 653f
000000c0: 15e4 703f 4897 833f 3126 783f 0eb7 d63f
000000d0: 9c03 843f 134e 813f c2f7 863f 9db9 993f
000000e0: 357e 923f ad7c 7f3f 5148 823f be9e 823f
000000f0: 6c57 813f f127 833f 4e95 753f eb31 7b3f
00000100: e448 843f 8537 853f f1ed 853f 1be8 823f
00000110: 7dde 803f 0448 863f 21df 823f d662 863f
00000120: 83ae 813e db71 843f 8a57 113f 8117 853f
00000130: b58d f83e 6df9 5340 59b7 3040 89bf 4e40
00000140: f9fe 673f 6e05 af3f 8781 773f 8534 8d3f
00000150: 60d2 6e3f 2824 a63f 7f48 753f 740a b83f
00000160: 2036 853f 12b3 9f3f 2b76 7b3f 8799 b23f

network.1.weight f4 [256, 92]
0.085772425 0.09879608 -0.045131657 -0.06257981 -0.015090347 -0.024049463 -0.06407228 0.124848194
0.12764974 -0.11717314 0.1319385 0.024425263 0.0656554 0.011274458 0.01258834 -0.0027627933
0.047230724 -0.05909825 0.0030627868 0.01815258 -0.037658017 -0.020998495 -0.15109546 0.07400007
-0.062552415 -0.029130157 0.05015574 -0.049133856 -0.06829971 -0.2368256 0.21409708 0.009018242
-0.008711791 0.008188323 -0.001314449 0.12517263 -0.032533657 0.029199699 -0.014661455 0.036498655
-0.049805384 0.02851155 0.0018803714 0.13583289 0.14070873 0.02817101 -0.0032293894 0.002083391
0.032656122 -0.047861367 -0.115608506 -0.11916226 -0.013747628 0.16652255 -0.034852237 0.055417135
0.13388987 0.025066648 0.069450736 -0.07919477 0.0181057 -0.07707544 0.026585475 -0.032572836
0.047304586 -0.011293086 0.09200502 -0.013949866 -0.026373703 -0.034933552 0.029967422 0.051363893
0.14216165 -0.06844893 -0.17967741 -0.06154184 -0.034222577 0.04494444 0.0056106267 0.08770559
-0.053489134 -0.043089088 0.007263198 -0.017023638 0.035976198 -0.01676374 0.06824448 -0.06733972
-0.05337301 0.04742573 0.175314 -0.052608773 -0.053335294 0.05660257 -0.061351143 -0.17147094
0.056220356 -0.13720188 -0.0837528 -0.097502165 -0.21258576 0.1746435 -0.061081786 -0.17508858
0.09326096 -0.10353718 -0.20903513 -0.061554957 -0.12534405 -0.07617176 0.026873613 0.01772206
0.0056802807 -0.07362179 -0.07741358 -0.02104014 0.07686709 -0.059566524 -0.0402025 -0.10510238
-0.04213654 -0.016883004 -0.03163429 0.13945079 -0.23702513 -0.06427702 -0.023939842 -0.10056881
0.17316477 0.041900985 0.09548599 0.08283439 -0.024772067 0.1261023 -0.11041608 -0.0090658795
-0.15711842 -0.1439583 0.021495318 -0.06009137 0.053398874 -0.062906235 0.097528644 -0.015993891
-0.0145524675 -0.027243301 0.029762901 0.11410289 0.06546434 -0.012766244 -0.03978389 0.008419858
0.03663697 -0.037486743 0.12981486 -0.064994805 0.08933828 0.080964975 0.07890698 -0.011410174
0.12783141 0.015851595 -0.011795641 -0.09810747 -0.034385566 -0.015504009 -0.009079282 0.08553787
0.043689493 -0.06375698 -0.1075405 0.040733438 0.030597666 0.03731531 -0.097230025 -0.0011184994
-0.16341773 0.08104996 0.045971587 -0.0462369 0.014492839 0.07670534 -0.21229821 0.014055239
0.10375197 -0.03948557 0.118301906 -0.11560178 0.039804097 -0.0022627995 0.028434737 0.056807492
0.06288993 0.08843258 0.07494019 -0.011590223 -0.014941681 0.008529832 0.02726381 0.042994272
-0.2318987 -0.050978627 0.3355986 0.021470414 0.0064137704 -0.030441932 -0.14999709 -0.09601205
-0.054500915 0.022626216 0.05615772 0.0559237 -0.21507806 -0.23741448 0.14001232 0.16568822
-0.08829621 0.0007709472 0.029544653 0.024055216 -0.055415943 0.04224407 0.033648923 -0.025413044
-0.07018772 0.065953135 0.07589848 0.1110191 0.012808569 -0.12369108 0.013456867 0.018030118
-0.0084457435 0.119342946 0.034817223 3.2241653e-05 0.021960571 -0.07744924 -0.12459521 -0.09668605
0.071770705 -0.0314066 0.057917878 -0.03289063 0.01919871 -0.044418354 -0.011893145 0.070895776
0.01785357 0.11078228 0.010874529 -0.23170185 0.0153421685 0.022436257 -0.0056044664 -0.042921532
00000000: 74a9 af3d 9955 ca3d f9db 38bd d829 80bd
00000010: 813d 77bc 6103 c5bc 5438 83bd 69b0 ff3d
00000020: 9db6 023e 79f8 efbd e31a 073e 7d17 c83c
00000030: 5776 863d 81b8 383c 533f 4e3c fb0f 35bb
00000040: 0175 413d 0211 72bd 09b9 483b b8b4 943c
00000050: 4b3f 1abd 0905 acbc c5b8 1abe 598d 973d
00000060: 7b1b 80bd 5ea2 eebc 1b70 4d3d 9540 49bd
00000070: b8e0 8bbd 6982 72be 443c 5b3e 40c1 133c
00000080: e6bb 0ebc 5128 063c 9749 acba 412d 003e
00000090: 0342 05bd 3534 ef3c 9936 70bc 9d7f 153d
000000a0: bb00 4cbd 0e91 e93c cb76 f63a c717 0b3e
000000b0: f315 103e e4c6 e63c 2aa4 53bb 8089 083b
000000c0: 6dc2 053d 480a 44bd 27c4 ecbd 580b f4bd
000000d0: bb3d 61bc e384 2a3e 38c1 0ebd 14fd 623d
000000e0: 6d1a 093e 9258 cd3c 303c 8e3d de30 a2bd
000000f0: 6852 943c bad9 9dbd c8c9 d93c 186b 05bd
00000100: 74c2 413d a306 39bc 216d bc3d fb8d 64bc
00000110: aa0d d8bc 7c16 0fbd 3d7e f53c f262 523d
00000120: d392 113e f42e 8cbd 5bfd 37be 4c13 7cbd
00000130: f92c 0cbd a917 383d 59d9 b73b fd9e b33d
00000140: 6c17 5bbd 2f7e 30bd 1f00 ee3b 2875 8bbc
00000150: c75b 133d 1c54 89bc c3c3 8b3d 68e9 89bd
00000160: a89d 5abd 7b41 423d 8385 333e 4c7c 57bd
00000170: 1c76 5abd 19d8 673d 564b 7bbd 1496 2fbe
00000180: 5147 663d a67e 0cbe 9786 abbd 37af c7bd
00000190: 15b0 59be bfd5 323e e530 7abd 6c4a 33be
000001a0: 9aff be3d 4d0b d4bd 4e0d 56be 0d21 7cbd
000001b0: 315a 00be f1ff 9bbd 0d26 dc3c db2d 913c
000001c0: a621 ba3b 05c7 96bd 038b 9ebd 5f5c acbc
000001d0: 7e6c 9d3d 07fc 73bd 60ab 24bd eb3f d7bd
000001e0: 5d97 2cbd 3a4e 8abc f592 01bd 30cc 0e3e
000001f0: b7b6 72be aca3 83bd 7d1d c4bc 05f7 cdbd
00000200: 1b52 313e 5ea0 2b3d 298e c33d 14a5 a93d
00000210: caee cabc f620 013e d321 e2bd 0e89 14bc
00000220: a7e3 20be ce69 13be f316 b03c 5e22 76bd
00000230: c7b8 5a3d fcd4 80bd 19bd c73d 9f05 83bc
00000240: 796d 6ebc 582d dfbc 54d1 f33c c7ae e93d
00000250: 2b12 863d 8229 51bc 6ff4 22bd 72f3 093c
00000260: a610 163d b38b 19bd 30ee 043e ff1b 85bd
00000270: fdf6 b63d f7d0 a53d fc99 a13d bdf1 3abc
00000280: 3de6 023e 34db 813c 8142 41bc 92ec c8bd
00000290: e1d7 0cbd 8704 7ebc 45c1 14bc 7b2e af3d
000002a0: c1f3 323d 0593 82bd 323e dcbd 1bd8 263d
000002b0: f5a7 fa3c f0d7 183d 8920 c7bd 9d9a 92ba
000002c0: fa56 27be 85fd a53d b44c 3c3d e762 3dbd
000002d0: 5f73 6d3c b017 9d3d b464 59be f247 663c
000002e0: ea7b d43d 9fbb 21bd 4548 f23d a0c0 ecbd
000002f0: 9f09 233d 7a4b 14bb f7ef e83c f9ae 683d
00000300: 70cc 803d 241c b53d 3e7a 993d ebe4 3dbc
00000310: f4cd 74bc b5c0 0b3c 5b58 df3c c31a 303d
00000320: da76 6dbe f7ce 50bd 94d3 ab3e b9e2 af3c
00000330: 9b2a d23b 5c61 f9bc d698 19be f7a1 c4bd
00000340: 5a3c 5fbd 9d5a b93c a305 663d 4010 653d
00000350: 6c3d 5cbe c81c 73be 645f 0f3e 2caa 293e
00000360: a5d4 b4bd 6419 4a3a a107 f23c 720f c53c
00000370: d4fb 62bd 1e08 2d3d 74d3 093d 042f d0bc
00000380: 94be 8fbd 7012 873d aa70 9b3d fb5d e33d
00000390: 08db 513c c051 fdbd 317a 5c3c e6b3 933c
000003a0: 0460 0abc 136a f43d 819c 0e3d 363b 0738
000003b0: a8e6 b33c b59d 9ebd c62b ffbd 5603 c6bd
000003c0: 85fc 923d 35a4 00bd 4c3b 6d3d 53b8 06bd
000003d0: 9d46 9d3c 05f0 35bd 77db 42bc ce31 913d
000003e0: a641 923c d2e1 e23d 152b 323c 4043 6dbe
000003f0: b85d 7b3c 3ecc b73c aca5 b7bb 7dce 2fbd

network.1.bias f4 [256]
-0.0072206506 -0.019828033 -0.013500441 -0.0033995556 -0.034939058 -0.08659496 0.03625675 -0.1848262
-0.04542448 -0.29690757 -0.035631694 -0.033880897 -0.16363387 -0.1583504 -0.05902212 -0.15209748
-0.15485375 -0.17365332 0.08085444 -0.10158597 -0.032847125 -0.16610059 -0.15095277 0.061537057
-0.17355302 -0.11504521 -0.082068175 -0.18333359 -0.026843855 -0.04105661 -0.08683224 -0.08640407
0.047755286 -0.046347566 -0.013804903 -0.19238749 -0.07333687 -0.10949917 -0.13423654 -0.17892918
-0.10882576 -0.113680184 -0.175529 -0.22264096 0.0024203784 -0.18370031 -0.15418708 0.047982797
-0.063911825 -0.14709236 -0.23624374 -0.093027815 -0.07135888 -0.041054975 -0.13118978 -0.032710142
-0.0196326 0.086106546 -0.076964945 -0.18748963 0.05040944 -0.26645675 -0.079543404 -0.10134022
-0.06164374 0.0033360864 -0.023972347 0.0064501814 -0.1818341 -0.030361459 -0.06865318 0.011461637
0.02545124 -0.19340958 -0.07415577 0.05696295 -0.13161267 -0.13253325 0.068903014 0.026410792
0.037530772 -0.0070987204 0.008824516 0.041281525 -0.06538223 -0.16096464 -0.10508409 -0.05574864
-0.13207361 -0.19598664 -0.041471228 -0.22049956 -0.09506301 0.0460769 -0.091654226 -0.14233068
-0.051168304 -0.1831108 -0.022532564 -0.10719336 0.0093356455 -0.15412557 -0.036034614 -0.05734959
-0.049364924 0.023945088 -0.092903465 -0.05187231 -0.19135372 -0.07648588 -0.10001597 -0.16651516
-0.0433973 0.05811063 -0.039711874 -0.030901073 -0.10675232 -0.057352215 0.0012423057 0.04642424
0.038120646 -0.10116797 -0.15828666 0.051968314 0.048225816 -0.044911347 -0.10033747 -0.2096496
-0.120696045 0.022338882 -0.046645857 -0.13435508 -0.2148841 -0.14702842 -0.077407554 -0.06607058
-0.08994522 -0.010865384 -0.07869439 -0.1540682 -0.09604709 0.009398871 -0.0423906 -0.09190195
-0.1331183 -0.13391092 -0.18323345 -0.105624385 -0.097056404 -0.06110798 -0.111316115 -0.24857756
-0.042886652 -0.08922811 0.050714076 -0.14075722 -0.21569178 -0.16205412 0.031308614 -0.175611
-0.117638685 -0.07440691 -0.119484514 -0.005463701 -0.018610222 0.016680047 -0.1529656 -0.065703146
-0.17260647 -0.03406356 -0.04876335 -0.17748994 -0.19993937 0.04555179 -0.071510985 -0.01767833
-0.1294661 -0.07115781 -0.027475923 -0.15772639 -0.0051586535 -0.2012803 -0.1184496 -0.1333929
-0.042481072 0.0017511523 -0.13783486 -0.12655787 -0.07984545 -0.1013609 0.048166 -0.07056452
-0.024044525 -0.0101998 0.07683603 -0.019059526 -0.060119424 0.012334307 0.02315644 -0.08557937
-0.13872467 -0.0023016802 -0.19596414 -0.12353547 -0.13741241 -0.047472406 -0.14978985 -0.10426815
-0.037035048 -0.17880568 -0.11382214 -0.09848841 -0.13241035 -0.10044741 -0.20231465 -0.12426374
0.056856003 -0.0819972 -0.057191245 -0.128675 -0.118817255 -0.038840525 -0.10943867 -0.11937449
-0.07709599 0.012792087 0.0014384332 -0.036417484 -0.10728652 -0.00901532 -0.1134121 -0.06843386
-0.029739115 -0.037989154 -0.0022757896 -0.047475092 -0.15319522 -0.0054040356 0.10511455 -0.04562932
-0.06109404 -0.1290774 -0.060862318 -0.18161748 -0.11997592 -0.06628421 -0.20721608 -0.22628526
-0.07250261 -0.04547664 -0.07595549 0.030943526 -0.10862405 -0.12700798 -0.06744547 0.06749422
00000000: 359b ecbb 666e a2bc f430 5dbc 14cb 5ebb
00000010: 421c 0fbd b358 b1bd f581 143d 1443 3dbe
00000020: 050f 3abd 4504 98be 8af2 11bd b2c6 0abd
00000030: a38f 27be 9b26 22be 2ec1 71bd 71bf 1bbe
00000040: fb91 1ebe 2dd2 31be 0397 a53d 4e0c d0bd
00000050: b58a 06bd 4616 2abe 5d93 1abe 480e 7c3d
00000060: e2b7 31be d39c ebbd 5c13 a8bd cdbb 3bbe
00000070: a5e7 dbbc fa2a 28bd 1ad5 b1bd 9ef4 b0bd
00000080: 0c9b 433d f2d6 3dbd f62d 62bc 3a01 45be
00000090: a431 96bd 1a41 e0bd 4e75 09be 3639 37be
000000a0: 0ae0 debd 28d1 e8bd e0bd 33be fefb 63be
000000b0: 369f 1e3b ef1b 3cbe 38e3 1dbe 9c89 443d
000000c0: 34e4 82bd 619f 16be e1e9 71be 5e85 bebd
000000d0: 9b24 92bd 4329 28bd 9d56 06be 12fb 05bd
000000e0: 8cd4 a0bc a158 b03d cc9f 9dbd 48fd 3fbe
000000f0: 217a 4e3d 056d 88be a7e7 a2bd 768b cfbd
00000100: 257e 7cbd 3ea2 5a3b a861 c4bc 0b5c d33b
00000110: b832 3abe 98b8 f8bc 0a9a 8cbd 97c9 3b3c
00000120: 1e7f d03c 290d 46be fbde 97bd fb51 693d
00000130: 79c5 06be ccb6 07be 061d 8d3d 725b d83c
00000140: deb9 193d 629c e8bb b494 103c d116 293d
00000150: 1ee7 85bd ead3 24be 5436 d7bd b058 64bd
00000160: 4e3e 07be b9b0 48be bcdd 29bd a3ca 61be
00000170: 65b0 c2bd 22bb 3c3d 36b5 bbbd 22bf 11be
00000180: db95 51bd 6681 3bbe 3696 b8bc 3188 dbbd
00000190: 89f4 183c 18d3 1dbe 0899 13bd 67e7 6abd
000001a0: e032 4abd 7d28 c43c 2c44 bebd 0f78 54bd
000001b0: 3bf2 43be a1a4 9cbd 2cd5 ccbd f382 2abe
000001c0: 5ec1 31bd 6905 6e3d eba8 22bd 3f24 fdbc
000001d0: f6a0 dabd 28ea 6abd ddd4 a23a 5827 3e3d
000001e0: 6524 1c3d 2731 cfbd e615 22be badc 543d
000001f0: 6f88 453d f6f4 37bd bb7d cdbd 62ae 56be
00000200: 7d2f f7bd 0800 b73c ba0f 3fbd 6194 09be
00000210: 940a 5cbe 9e8e 16be da87 9ebd 0350 87bd
00000220: 3335 b8bd b904 32bc 862a a1bd 0ec4 1dbe
00000230: 56b4 c4bd b9fd 193c c4a1 2dbd 1737 bcbd
00000240: 2a50 08be f21f 09be 8da1 3bbe 9951 d8bd
00000250: 82c5 c6bd 5c4c 7abd b4f9 e3bd 1e8b 7ebe
00000260: eaa9 2fbd 3abd b6bd 90b9 4f3d a922 10be
00000270: 4ede 5cbe 84f1 25be 763d 003d 5fd3 33be
00000280: 8dec f0bd a662 98bd 4cb4 f4bd d908 b3bb
00000290: 7774 98bc 98a4 883c 04a3 1cbe 5f8f 86bd
000002a0: c0bf 30be 3b86 0bbd 14bc 47bd ecbf 35be
000002b0: e8bc 4cbe 8494 3a3d 5a74 92bd 25d2 90bc
000002c0: c392 04be 30bb 91bd 3015 e1bc 0783 21be
000002d0: ec09 a9bb 6c1c 4ebe b495 f2bd 2698 08be
000002e0: a200 2ebd ec86 e53a 9524 0dbe 6398 01be
000002f0: 0386 a3bd 4e96 cfbd b649 453d 2284 90bd
00000300: 06f9 c4bc 101d 27bc 355c 9d3d b922 9cbc
00000310: c93f 76bd d515 4a3c 93b2 bd3c 3d44 afbd
00000320: d70d 0ebe c9d7 16bb d3aa 48be 2a00 fdbd
00000330: d7b5 0cbe 6d72 42bd 8362 19be 8a8a d5bd
00000340: 10b2 17bd d618 37be 951b e9bd 4bb4 c9bd
00000350: 9496 07be 5fb7 cdbd 922b 4fbe fd7d febd
00000360: d7e1 683d 26ee a7bd 5e41 6abd 61c3 03be
00000370: 7656 f3bd 3e17 1fbd 6221 e0bd 9d7a f4bd
00000380: 81e4 9dbd e795 513c cf89 bc3a 802a 15bd
00000390: 09b9 dbbd feb4 13bc 9a44 e8bd 0d27 8cbd
000003a0: 729f f3bc 849a 1bbd 6a25 15bb 3e75 42bd
000003b0: 35df 1cbe 5614 b1bb 4c46 d73d cfe5 3abd
000003c0: be3d 7abd de2c 04be c44a 79bd eff9 39be
000003d0: efb5 f5bd 04c0 87bd 7430 54be 53b7 67be
000003e0: 407c 94bd b745 3abd 8d8e 9bbd 477d fd3c
000003f0: 4976 debd 610e 02be da20 8abd 693a 8a3d

network.4.weight f4 [256]
1.0029356 1.0283995 1.0206347 0.9571467 0.9481711 1.0465701 0.88372225 0.99234974
1.0260636 0.98080957 0.9917672 0.99724954 0.95574224 0.9581324 0.99648875 1.0079315
1.0102549 1.0912822 0.9035632 1.0130233 1.0001745 0.9728076 0.9477001 0.9158874
1.0141981 1.0601614 0.9794598 0.9861173 0.9042645 0.94136775 1.0836283 0.9718181
0.964998 0.9961086 1.0365753 1.0305626 0.98227596 0.9744229 0.9952226 1.0381817
1.0091947 1.0000479 1.0215393 0.9935846 1.0044619 1.0238757 0.99314296 0.8917832
0.98298967 1.0209311 0.9882722 0.9403128 0.96743697 0.97622705 1.0276805 0.9480379
0.93016946 0.9939619 0.974361 0.9908444 0.86873674 1.0697373 1.0009364 0.8564511
0.9116595 0.96407515 0.98871654 0.9052043 1.0160096 0.90030086 1.0303745 0.9910679
0.96338713 0.9982197 0.95686686 0.9125731 0.89602363 0.99894905 0.98630637 0.83520263
0.992527 0.9795784 0.9544284 0.93387043 0.9939732 0.88436186 0.92665905 1.0322919
0.9189541 1.0056655 0.9572593 1.0497767 0.9426276 0.79047173 0.92940044 1.0006975
0.97632587 0.9879856 1.0079821 0.97922134 0.96377903 0.93733114 1.0012095 1.0263263
1.016541 0.9512704 1.0062472 0.9524309 1.0363606 0.93655455 0.9876857 1.0459987
0.86712945 0.97229993 0.9802917 1.0152729 0.9919942 0.98262846 1.0034178 0.9599127
0.9570113 1.044492 0.9738017 0.8492951 0.95991296 1.003839 0.95107526 1.0137935
0.9477777 0.98892844 1.0270481 0.8959085 1.0293761 1.0472052 0.9829102 0.9622388
0.9753239 0.9072902 0.9675538 0.98918813 0.92060804 0.9863736 0.9759971 0.93623877
1.0252373 0.9624309 0.9486614 1.0036554 1.0168478 0.96994704 1.0545348 0.949921
0.9152567 1.0110073 1.0046015 1.0096229 1.0629262 0.96050525 0.9869643 0.94243646
0.9731087 0.95382786 0.93070364 1.0048653 0.9874735 1.0199499 1.0111 1.0253078
0.87544197 0.9853594 1.0359793 0.96627724 1.0362296 0.9123773 0.9634432 0.980014
1.0174147 0.9472466 0.9874204 0.9611208 0.94593865 0.96809876 1.0712852 1.0311058
0.959229 0.9507099 0.98919076 0.9607367 0.9479769 1.0038893 0.9152181 1.0525208
0.9655573 0.9846871 0.9763569 0.98226976 0.936629 0.9407189 0.8804955 1.0172817
1.0255847 0.92162406 1.0472673 1.0068955 0.97067755 1.0454135 1.0232084 0.96625364
0.9634136 0.9795804 0.8844586 0.9643821 0.98633003 0.9711031 1.0501876 0.9768307
0.96941525 0.98641104 0.94202226 1.038402 1.0002216 0.94923985 0.9696198 0.9163472
1.0159131 0.9754648 0.98008925 1.0070105 1.0133816 0.9698453 1.0021813 1.0078439
0.92344975 0.96694636 0.9671436 0.9619467 0.962437 0.97867703 0.9113629 1.0141622
0.91737485 1.0278794 0.8608462 0.9946327 1.0252438 0.9496834 0.99679583 1.0152302
0.99763405 0.96379375 0.92983055 1.0065368 0.9869056 0.9606939 1.0199436 0.88758475
00000000: 3260 803f 98a2 833f 28a4 823f 9107 753f
00000010: 57bb 723f 02f6 853f 9f3b 623f a20a 7e3f
00000020: 0d56 833f 5616 7b3f 75e4 7d3f bf4b 7f3f
00000030: 86ab 743f 2a48 753f e319 7f3f e603 813f
00000040: 0850 813f 23af 8b3f eb4f 673f bfaa 813f
00000050: b805 803f eb09 793f 799c 723f 9977 6a3f
00000060: 3ed1 813f 5eb3 873f e1bd 7a3f 2f72 7c3f
00000070: e17d 673f 7afd 703f 55b4 8a3f 12c9 783f
00000080: 1c0a 773f f900 7f3f 80ae 843f 7ae9 833f
00000090: 7076 7b3f c773 793f e9c6 7e3f 23e3 843f
000000a0: 4b2d 813f 9201 803f cdc1 823f 8f5b 7e3f
000000b0: 3592 803f 5c0e 833f 9e3e 7e3f e74b 643f
000000c0: 36a5 7b3f dfad 823f 68ff 7c3f 57b8 703f
000000d0: f3a9 773f 04ea 793f 098b 833f 9db2 723f
000000e0: 961f 6e3f 4974 7e3f b96f 793f fba7 7d3f
000000f0: 8865 5e3f 27ed 883f af1e 803f 6140 5b3f
00000100: 8462 693f a1cd 763f 871c 7d3f 78bb 673f
00000110: 9a0c 823f 1e7a 663f 50e3 833f a0b6 7d3f
00000120: 8aa0 763f 548b 7f3f 3af5 743f 649e 693f
00000130: ce61 653f 20bb 7f3f 937e 7c3f d7cf 553f
00000140: 4016 7e3f a6c5 7a3f 6b55 743f 2212 6f3f
00000150: 0775 7e3f 8a65 623f 8739 6d3f 2422 843f
00000160: 9340 6b3f a6b9 803f f20e 753f 155f 863f
00000170: 0b50 713f 5b5c 4a3f 30ed 6d3f db16 803f
00000180: 7ef0 793f a0ec 7c3f 8f05 813f 40ae 7a3f
00000190: 39ba 763f eff4 6f3f a227 803f a95e 833f
000001a0: 041e 823f 7586 733f b5cc 803f 83d2 733f
000001b0: 77a7 843f 0ac2 6f3f f8d8 7c3f 49e3 853f
000001c0: 32fc 5d3f a6e8 783f 66f4 7a3f 76f4 813f
000001d0: 55f3 7d3f 8a8d 7b3f ff6f 803f d7bc 753f
000001e0: b1fe 743f eab1 853f 114b 793f 676b 593f
000001f0: dbbc 753f cc7d 803f ab79 733f fcc3 813f
00000200: 8fa1 723f 6a2a 7d3f 5076 833f 425a 653f
00000210: 99c2 833f d20a 863f 01a0 7b3f 4855 763f
00000220: d4ae 793f 2c44 683f 9bb1 773f 6f3b 7d3f
00000230: f8ac 6b3f fb82 7c3f f2da 793f 58ad 6f3f
00000240: fa3a 833f df61 763f 79db 723f c877 803f
00000250: 1228 823f 734e 783f fffa 863f 062e 733f
00000260: 434e 6a3f b068 813f c896 803f 533b 813f
00000270: f70d 883f ace3 753f b1a9 7c3f 8443 713f
00000280: a71d 793f 102e 743f 9842 6e3f 6d9f 803f
00000290: 10cb 7c3f b88d 823f ba6b 813f 493d 833f
000002a0: f71c 603f 8340 7c3f f89a 843f f25d 773f
000002b0: 2ca3 843f 8f91 693f 37a4 763f 33e2 7a3f
000002c0: a53a 823f c17e 723f 95c7 7c3f 030c 763f
000002d0: 0929 723f 52d5 773f e01f 893f 46fb 833f
000002e0: 0890 753f b961 733f 9b3b 7d3f d7f2 753f
000002f0: 9dae 723f 727f 803f bc4b 6a3f 00b9 863f
00000300: c32e 773f 7414 7c3f 87f2 793f 0876 7b3f
00000310: ebc6 6f3f f4d2 703f 2768 613f 4936 823f
00000320: 5c46 833f 8eef 6b3f db0c 863f f4e1 803f
00000330: 537e 783f 1cd0 853f 7ef8 823f 665c 773f
00000340: 46a2 763f c8c5 7a3f e16b 623f bfe1 763f
00000350: 2080 7c3f 369a 783f 8c6c 863f 9411 7a3f
00000360: 992b 783f 6f85 7c3f 5f28 713f 5bea 843f
00000370: 4307 803f 6201 733f 0139 783f bb95 6a3f
00000380: 7109 823f 10b8 793f 21e7 7a3f b8e5 803f
00000390: 7db6 813f c847 783f 7a47 803f 0701 813f
000003a0: 3467 6c3f cc89 773f b996 773f 2442 763f
000003b0: 4562 763f 948a 7a3f 144f 693f 11d0 813f
000003c0: 14d9 6a3f 8d91 833f 6b60 5c3f 40a0 7e3f
000003d0: 303b 833f 741e 733f 032e 7f3f 10f3 813f
000003e0: f264 7f3f 30bb 763f 6009 6e3f 33d6 803f
000003f0: d8a5 7c3f 09f0 753f 838d 823f c138 633f

network.4.bias f4 [256]
0.09591258 -0.002557404 0.04426964 0.010459396 -0.029675804 0.10309605 0.09396975 0.093537174
0.0256259 0.04724801 -0.05181284 -0.09307185 -0.098554276 0.14555979 0.13074532 -0.03045711
-0.004627175 0.09625201 0.00536119 0.1626299 -0.03103015 0.13903831 0.024553211 0.079833694
-0.041724067 -0.012684758 0.07679202 0.057860263 0.05183885 -0.0015091551 -0.085145995 0.16150571
0.045102354 -0.06218236 0.01866494 0.097822025 0.020258289 0.010375065 0.0139680235 0.078292206
0.024455322 0.10912297 0.09403942 0.14277731 0.041040387 0.11458354 0.04653233 0.21104987
-0.018279873 0.04610606 0.11402725 0.06435678 -0.0020825618 -0.0020589675 0.171476 0.25652796
0.21042997 0.13271396 0.14435183 0.030938143 -0.0034286138 0.123489626 0.19666995 0.16433589
0.1578858 0.039695673 0.1494541 0.06769452 0.008966185 0.026775427 -0.07077903 0.09984295
0.06241646 0.11479119 0.11864551 0.0106097795 -0.004668993 -0.009839223 0.03916723 0.12748478
0.1375525 -0.05144935 0.09437927 0.056982253 -0.030670408 0.12075334 0.1749702 0.07484851
0.18558836 0.1646509 0.14838561 0.020524707 0.10611257 0.08568056 0.17254809 0.13209292
0.10793458 0.17313038 0.10019983 0.078412205 0.04334117 0.037423052 0.04331518 0.011560216
0.098637395 0.03729831 0.11153963 -0.11886337 0.06167339 0.06653821 0.09557003 -0.04153285
0.21833062 0.14345129 0.09361769 -0.063448966 0.1135323 0.09413627 0.025420561 0.09823847
0.12329647 0.094571 0.050141342 0.09539955 0.023312049 0.16098918 0.12661417 0.06905636
0.17251766 0.09609613 0.023208352 0.13440797 0.006961353 0.07739391 0.0108935805 0.036343567
-0.041123915 0.15449023 0.062372524 -0.053590547 -0.020615462 0.11595571 -0.06022374 0.120450236
-0.062981084 0.10144295 0.028520303 0.1354825 0.07813839 0.12370068 0.043452147 0.05745082
0.12084396 0.12324615 0.05355956 0.04440079 0.08491524 0.17439131 0.08275282 -0.11886323
-0.029197374 0.10398538 0.0083683655 -0.008879404 0.08910695 -0.024316264 0.061827343 0.12900567
0.096905306 0.08168175 -0.011482676 0.0117476275 0.05332073 0.047766678 -0.056662414 0.14507596
0.081959456 0.2315976 -0.079504035 0.13618524 0.018584406 0.061202515 0.0075572617 0.0808092
0.14246628 0.14532289 0.10864625 0.09469972 0.2313589 -0.017983185 0.11367134 0.01399919
-0.013440012 0.09732611 0.027193045 0.1532043 0.047271837 0.04540332 0.08912909 -0.04143328
0.014673856 0.02406494 0.14005217 0.06561244 0.049377795 0.08923132 -0.027289849 0.11369076
-0.032019243 0.07595687 0.02303113 -0.018222691 0.15837026 0.107517116 0.13608976 0.12714645
0.038650554 0.07453663 -0.12319194 -0.06372617 0.08287262 0.17573349 0.12459869 0.052037895
0.053349163 0.13752566 0.09371471 0.14121783 0.09169659 0.19133195 0.080662705 -0.07801747
0.06856712 -0.0832016 0.007817916 0.07293628 0.1468763 0.10192227 0.01896609 0.16178422
0.102617376 0.069488555 0.01799611 0.07500409 0.16869375 0.18524121 0.016742164 0.047547076
-0.02758913 -0.05893802 0.1031296 -0.015937464 0.09869089 0.10384477 0.025099732 0.010947568
00000000: d16d c43d 1f9a 27bb 1554 353d e35d 2b3c
00000010: ac1a f3bc 0624 d33d 3673 c03d 6b90 bf3d
00000020: 68ed d13c 2187 413d b339 54bd 749c bebd
00000030: d3d6 c9bd a00d 153e 1ae2 053e 3081 f9bc
00000040: 8f9f 97bb c61f c53d ecac af3b 7488 263e
00000050: f132 febc 0f60 0e3e d123 c93c d97f a33d
00000060: dbe6 2abd bbd3 4fbc 2245 9d3d e2fe 6c3d
00000070: f954 543d d8ce c5ba 0661 aebd c161 253e
00000080: 3fbd 383d eeb2 7ebd 37e7 983c ea56 c83d
00000090: b6f4 a53c 2dfc 293c 23da 643c aa57 a03d
000000a0: 8756 c83c dd7b df3d bd97 c03d 3734 123e
000000b0: f719 283d c6aa ea3d af98 3e3d 751d 583e
000000c0: acbf 95bc b5d9 3c3d 1e87 e93d 7dcd 833d
000000d0: 977b 08bb beef 06bb 6897 2f3e a257 833e
000000e0: f47a 573e 2be6 073e f7d0 133e fd71 fd3c
000000f0: 98b2 60bb 21e8 fc3d d963 493e ab47 283e
00000100: d1ac 213e ee97 223d 7f0a 193e 6da3 8a3d
00000110: e8e6 123c 2458 db3c 99f4 90bd 767a cc3d
00000120: 67a8 7f3d a517 eb3d 6bfc f23d a4d4 2d3c
00000130: 5afe 98bb b134 21bc d16d 203d 5f8b 023e
00000140: 90da 0c3e 8ebc 52bd eb49 c13d 3966 693d
00000150: 8240 fbbc 874d f73d 632b 333e 2d4a 993d
00000160: e00a 3e3e 3f9a 283e 66f2 173e 6e23 a83c
00000170: 8c51 d93d 4a79 af3d 72b0 303e 5e43 073e
00000180: ce0c dd3d 1749 313e 9235 cd3d 9496 a03d
00000190: 8386 313d ea48 193d 426b 313d 0f67 3d3c
000001a0: 6702 ca3d 1dc6 183d e46e e43d a36e f3bd
000001b0: 3d9d 7c3d 2f45 883d 38ba c33d 5a1e 2abd
000001c0: 1092 5f3e e5e4 123e a2ba bf3d 88f1 81bd
000001d0: 9f83 e83d 84ca c03d c83e d03c 4031 c93d
000001e0: dc82 fc3d 71ae c13d 0261 4d3d d760 c33d
000001f0: e9f8 be3c 59da 243e 25a7 013e 6c6d 8d3d
00000200: 78a8 303e 0cce c43d 711f be3c 3ea2 093e
00000210: 101c e43b b380 9e3d fd7a 323c fedc 143d
00000220: 8d71 28bd b032 1e3e 557a 7f3d c381 5bbd
00000230: c2e1 a8bc 307a ed3d 2bad 76bd 9dae f63d
00000240: 3afc 80bd 52c1 cf3d 69a3 e93c edbb 0a3e
00000250: 0507 a03d c856 fd3d e1fa 313d 8d51 6b3d
00000260: 0a7d f73d 7a68 fc3d 4561 5b3d 9add 353d
00000270: 0be8 ad3d a393 323e 4f7a a93d 916e f3bd
00000280: 552f efbc 49f6 d43d 781b 093c eb7a 11bc
00000290: b47d b63d e732 c7bc ab3e 7d3d 101a 043e
000002a0: 4a76 c63d c348 a73d d521 3cbc 1f79 403c
000002b0: d666 5a3d fea6 433d d916 68bd cb8e 143e
000002c0: 5cda a73d ec27 6d3e 03d3 a2bd 2574 0b3e
000002d0: 533e 983c 7daf 7a3d e8a2 f73b 4b7f a53d
000002e0: aee2 113e 86cf 143e ed81 de3d edf1 c13d
000002f0: 59e9 6c3e 7951 93bc 85cc e83d dc5c 653c
00000300: 7f33 5cbc e952 c73d f3c3 de3c 97e1 1c3e
00000310: 1da0 413d d5f8 393d 5089 b63d f1b5 29bd
00000320: 9d6a 703c d623 c53c d669 0f3e d15f 863d
00000330: 5f40 4a3d e9be b63d f68e dfbc b4d6 e83d
00000340: 9c26 03bd 478f 9b3d c8ab bc3c c147 95bc
00000350: d02b 223e ef31 dc3d 1d5b 0b3e ae32 023e
00000360: 0b50 1e3d a9a6 983d 0e4c fcbd de82 82bd
00000370: 1fb9 a93d 7bf3 333e 992d ff3d b025 553d
00000380: a784 5a3d 87d3 0c3e 7fed bf3d 689b 103e
00000390: 6ccb bb3d 86ec 433e 7d32 a53d a0c7 9fbd
000003a0: eb6c 8c3d 9a65 aabd b716 003c 9e5f 953d
000003b0: be66 163e a0bc d03d c65e 9b3c c3aa 253e
000003c0: 0f29 d23d 0450 8e3d 946c 933c bf9b 993d
000003d0: 0ebe 2c3e dfaf 3d3e dd26 893c b9c0 423d
000003e0: 9902 e2bc fe68 71bd 9d35 d33d 498f 82bc
000003f0: 731e ca3d 91ac d43d f49d cd3c 6e5d 333c

network.4.running_mean f4 [256]
0.2840939 0.074298054 0.18314222 0.19978811 0.19736345 0.12998292 0.28798282 0.13391134
0.1079738 0.0100414865 0.14361617 0.08596346 0.112637624 0.10295372 0.16481659 0.08840761
0.08814454 0.08412019 0.28508604 0.14357905 0.15384075 0.101614155 0.11970062 0.4509161
0.19427985 0.027254382 0.22563954 0.065107435 0.1975022 0.24819916 0.08479026 0.21840353
0.21281055 0.14006107 0.21472274 0.10000829 0.13241352 0.1586976 0.046674665 0.15825798
0.09263658 0.22016771 0.08315207 0.08952924 0.14770019 0.116348624 0.13399011 0.35931638
0.1632616 0.068343826 0.05324022 0.1687012 0.17820609 0.09968022 0.100037515 0.34949625
0.22661087 0.3432131 0.26294884 0.08460941 0.3737156 0.046894748 0.13760065 0.31133723
0.1305576 0.30232826 0.13008837 0.25587526 0.10705024 0.15656498 0.04531232 0.33972153
0.24320278 0.05684385 0.2664868 0.36099827 0.18111259 0.11775942 0.22086737 0.5099981
0.26088598 0.14213483 0.24544464 0.1826261 0.13986364 0.20143735 0.14550197 0.1858223
0.2035697 0.10307514 0.29001462 0.12414239 0.26836696 0.3559025 0.2717155 0.08984767
0.24173445 0.12659337 0.21390517 0.1907564 0.25604314 0.27336675 0.24232496 0.15007314
0.16255568 0.22576772 0.08795094 0.049327727 0.07483236 0.23095557 0.20744635 0.08847931
0.1996257 0.30681407 0.17335416 0.076616615 0.1636876 0.20200805 0.18519731 0.32007805
0.30840296 0.08412336 0.062613375 0.18047807 0.3371629 0.10460609 0.16833329 0.068112664
0.14281698 0.28833202 0.17096741 0.16691424 0.043377627 0.06725925 0.13902399 0.19265871
0.08751986 0.33591083 0.258058 0.08843208 0.20897242 0.18528019 0.14645101 0.17354551
0.03389617 0.035503075 0.14144668 0.2732434 0.094880365 0.18108195 0.10746316 0.054689236
0.24065208 0.12338654 0.18753842 0.16375116 0.049233317 0.063537784 0.16406453 0.05079524
0.20714594 0.1465651 0.12762079 0.15218015 0.21504425 0.10776321 0.08701853 0.12558116
0.21766832 0.14916345 0.08892171 0.10698988 0.046318673 0.2048319 0.21597819 0.30647245
0.20349066 0.28327918 0.07432922 0.25431636 0.2648143 0.096982144 0.07050258 0.2347897
0.07934025 0.33919695 0.16893952 0.07245679 0.1974396 0.090524904 0.34649038 0.18307161
0.12831515 0.13065934 0.36421075 0.20974824 0.13098562 0.26514518 0.23638354 0.08669883
0.039941814 0.21213922 0.07194793 0.09405059 0.13117267 0.19187833 0.0756501 0.17533065
0.1791774 0.1874756 0.1980002 0.068124644 0.11720218 0.1262068 0.056919888 0.11134231
0.23311684 0.16542551 0.19785874 0.07991749 0.1687193 0.14670753 0.12341148 0.20443638
0.1549199 0.23309387 0.19148298 0.14112794 0.097356595 0.3970639 0.2136826 0.03819193
0.15732232 0.10730749 0.2303165 0.24056688 0.11515622 0.3118345 0.4769761 0.188153
0.29185325 0.17732221 0.23561895 0.063958354 0.115068845 0.2638466 0.083040744 0.117917195
0.08388278 0.110563785 0.12859981 0.2019643 0.24090342 0.08337851 0.054443795 0.36260653
00000000: c174 913e 9429 983d a289 3b3e 4195 4c3e
00000010: a519 4a3e 3e1a 053e 7c72 933e 0e20 093e
00000020: 5e21 dd3d 0c85 243c 1e10 133e 9c0d b03d
00000030: 8eae e63d 66d9 d23d aec5 283e 0d0f b53d
00000040: 2085 b43d 3547 ac3d ccf6 913e 6306 133e
00000050: 6e88 1d3e 151b d03d 9925 f53d 7ade e63e
00000060: 4cf1 463e 9544 df3c 0d0e 673e 0c57 853d
00000070: 043e 4a3e ec27 7e3e 84a6 ad3d 2da5 5f3e
00000080: 02eb 593e 2b6c 0f3e 47e0 5b3e 25d1 cc3d
00000090: 6997 073e a081 223e ef2d 3f3d 610e 223e
000000a0: 3fb8 bd3d a573 613e a24b aa3d 1b5b b73d
000000b0: b83e 173e 3048 ee3d b434 093e 51f8 b73e
000000c0: 0d2e 273e d9f7 8b3d 6b12 5a3d 02c0 2c3e
000000d0: a87b 363e 2525 cc3d 78e0 cc3d 2cf1 b23e
000000e0: ae0c 683e a1b9 af3e 3ba1 863e b347 ad3d
000000f0: a757 bf3e b514 403d 2fe7 0c3e 9867 9f3e
00000100: e4b0 053e c5ca 9a3e e335 053e 1502 833e
00000110: 283d db3d 9252 203e 6999 393d fbef ad3e
00000120: 260a 793e 19d5 683d f570 883e c4d4 b83e
00000130: 9475 393e da2b f13d 0e2b 623e 3c8f 023f
00000140: d992 853e cb8b 113e d755 7b3e 5602 3b3e
00000150: 6a38 0f3e 9845 4e3e 78fe 143e 3348 3e3e
00000160: 9374 503e 0f19 d33d cc7c 943e 5e3e fe3d
00000170: 6567 893e da38 b63e 4b1e 8b3e 0e02 b83d
00000180: 3c89 773e b1a1 013e f509 5b3e a555 433e
00000190: 1618 833e baf6 8b3e 0924 783e c6ac 193e
000001a0: ff74 263e a72f 673e 9f1f b43d df0b 4a3d
000001b0: b541 993d 9e7f 6c3e d16c 543e a434 b53d
000001c0: ae6a 4c3e bc16 9d3e c183 313e 2ce9 9c3d
000001d0: b99d 273e 33db 4e3e 5da4 3d3e 45e1 a33e
000001e0: fee6 9d3e de48 ac3d 713b 803d 3ecf 383e
000001f0: 9ea0 ac3e b83b d63d 905f 2c3e a77e 8b3d
00000200: 9d3e 123e 41a0 933e 1512 2f3e 91eb 2a3e
00000210: bdac 313d 38bf 893d 4e5c 0e3e 5348 453e
00000220: 9d3d b33d 81fc ab3e 2e20 843e e11b b53d
00000230: defc 553e 17ba 3d3e 41f7 153e eab5 313e
00000240: b6d6 0a3d ac6b 113d 66d7 103e 8fe6 8b3e
00000250: a350 c23d 8c6d 393e a515 dc3d d201 603d
00000260: 806d 763e 15b2 fc3d 120a 403e 62ae 273e
00000270: e0a8 493d 1920 823d 8800 283e ab0e 503d
00000280: 111e 543e 2915 163e 06af 023e 1dd5 1b3e
00000290: 8f34 5c3e f5b2 dc3d c536 b23d 5998 003e
000002a0: 72e4 5e3e 4ebe 183e 961c b63d 831d db3d
000002b0: a6b8 3d3d 74bf 513e 6329 5d3e f5e9 9c3e
000002c0: db5f 503e f809 913e eb39 983d c135 823e
000002d0: bd95 873e 939e c63d a863 903d b66c 703e
000002e0: 247d a23d 39ab ad3e 7bfe 2c3e 3a64 943d
000002f0: 9b2d 4a3e 1f65 b93d 3067 b13e 2077 3b3e
00000300: 0c65 033e 90cb 053e d579 ba3e 3ec8 563e
00000310: 1821 063e 1cc1 873e 870e 723e 288f b13d
00000320: 079a 233d 063b 593e 7059 933d 999d c03d
00000330: 2152 063e c17b 443e 71ee 9a3d e189 333e
00000340: 487a 373e 9bf9 3f3e 90c0 4a3e ef84 8b3d
00000350: b207 f03d 5b3c 013e d424 693d 7007 e43d
00000360: 2eb6 6e3e 4e65 293e 7b9b 4a3e c8ab a33d
00000370: c1c4 2c3e 803a 163e 28bf fc3d c557 513e
00000380: 52a3 1e3e 29b0 6e3e 1d14 443e d883 103e
00000390: e562 c73d f64b cb3e 9dcf 5a3e 246f 1c3d
000003a0: 1a19 213e 08c4 db3d 17d8 6b3e 2a57 763e
000003b0: 06d7 eb3d c6a8 9f3e 3636 f43e 2eab 403e
000003c0: ca6d 953e f493 353e 1846 713e 99fc 823d
000003d0: 37a9 eb3d e716 873e 4411 aa3d 927e f13d
000003e0: bcca ab3d 446f e23d abaf 033e bbcf 4e3e
000003f0: 63af 763e 5ac2 aa3d 7500 5f3d 90a7 b93e

network.4.running_var f4 [256]
0.3951214 0.06448724 0.18484625 0.20751303 0.23412004 0.19720884 0.31587547 0.1832288
0.07099856 0.00536724 0.11430802 0.03682277 0.19101441 0.109810024 0.167037 0.0736556
0.073757835 0.113355584 0.3705291 0.16846886 0.10213753 0.11371281 0.10346283 0.8947657
0.17337306 0.012255227 0.4375282 0.071427874 0.1796687 0.34886464 0.06068118 0.31682783
0.25107285 0.10023646 0.25608304 0.10783725 0.09331388 0.1170512 0.017481789 0.23945358
0.11815709 0.28605133 0.06614395 0.15221696 0.20478068 0.16812259 0.13898768 0.5457984
0.13654254 0.07865412 0.047511294 0.14413926 0.15923943 0.070399 0.12484764 0.56180143
0.33224803 0.43339074 0.35672268 0.07814797 0.78602177 0.03395148 0.11359327 0.7617148
0.15987074 0.43973956 0.13317506 0.29106885 0.06615237 0.15149756 0.02231442 0.53044814
0.31713566 0.04580322 0.41482615 0.7079813 0.2584893 0.10658215 0.345445 1.0884514
0.3655374 0.13464332 0.3465137 0.16599968 0.11917804 0.29982263 0.19286531 0.24906337
0.26680285 0.13801639 0.45064932 0.119600706 0.3718661 0.74680346 0.45965147 0.08356544
0.29461986 0.16360141 0.24478239 0.24355431 0.26745066 0.28388566 0.34876144 0.1641547
0.23412341 0.26976293 0.102012016 0.029633414 0.069483005 0.5458366 0.28592962 0.06061327
0.28469127 0.5637057 0.20595387 0.038551647 0.2493395 0.25194505 0.1387192 0.52176017
0.38164744 0.11274589 0.043976553 0.1569954 0.4842889 0.11031348 0.22522394 0.047204364
0.15125178 0.25154036 0.14071225 0.21583726 0.023659993 0.06377748 0.11419218 0.1678566
0.060889006 0.57277614 0.22304033 0.061849024 0.2724895 0.3251404 0.09787474 0.19141468
0.013613423 0.030127948 0.23458695 0.43163076 0.08381482 0.37963647 0.081024595 0.041567594
0.34589306 0.23277758 0.19019961 0.19495668 0.04389564 0.04985368 0.1284585 0.028572498
0.21090268 0.19518009 0.11073557 0.13236749 0.29336113 0.077139206 0.0875601 0.11774565
0.4265926 0.16548966 0.068771295 0.14320555 0.035620928 0.25742677 0.20135204 0.5257564
0.28058916 0.46542746 0.054049704 0.39941627 0.34018064 0.095834985 0.052400444 0.28022823
0.075871356 0.41204256 0.26160815 0.07506726 0.36464196 0.059824068 0.59732884 0.18441994
0.12498908 0.15641509 0.37505704 0.23019183 0.1175618 0.2837506 0.22802852 0.061967686
0.030602729 0.20724335 0.07879753 0.0783553 0.14579317 0.21272917 0.054953214 0.34525156
0.2507534 0.24759085 0.26535526 0.050846163 0.16575682 0.11544733 0.046702135 0.11208624
0.20641817 0.2698497 0.18991584 0.056169484 0.13634007 0.1970291 0.1002647 0.27379477
0.20416816 0.33286667 0.19620173 0.1678264 0.1157862 0.72235876 0.2484114 0.016885957
0.17844625 0.07044782 0.35764328 0.35627747 0.15842387 0.48442248 0.49169558 0.2852323
0.454881 0.21525641 0.29553005 0.071362324 0.11654714 0.34294665 0.056045383 0.14833899
0.05560906 0.057955906 0.14993456 0.20682935 0.35164285 0.05304729 0.039196014 0.3854482
00000000: 5a4d ca3e e311 843d 5648 3d3e 4c7e 543e
00000010: 2abd 6f3e 1df1 493e 6eba a13e 55a0 3b3e
00000020: b167 913d acdf af3b 531a ea3d 79d3 163d
00000030: 4899 433e 14e4 e03d bf0b 2b3e bfd8 963d
00000040: 590e 973d f926 e83d fdb5 bd3e 1a83 2c3e
00000050: 7b2d d13d 43e2 e83d 52e4 d33d 5d0f 653f
00000060: b588 313e 26ca 483c b203 e03e c748 923d
00000070: 12fb 373e 639e b23e d48c 783d 4237 a23e
00000080: 9f8c 803e c648 cd3d 511d 833e c7d9 dc3d
00000090: 591b bf3d 8ab8 ef3d f835 8f3c 5233 753e
000000a0: 58fc f13d 5275 923e 7b76 873d c3de 1b3e
000000b0: 07b2 513e 5428 2c3e c952 0e3e 72b9 0b3f
000000c0: cfd1 0b3e 6915 a13d 349b 423d 3e99 133e
000000d0: a90f 233e 5a2d 903d 1fb0 ff3d 38d2 0f3f
000000e0: 6a1c aa3e 64e5 dd3e 5ba4 b63e 0b0c a03d
000000f0: b938 493f b510 0b3d 97a3 e83d beff 423f
00000100: 28b5 233e 8b25 e13e 0b5f 083e fa06 953e
00000110: e57a 873d 2d22 1b3e bbcc b63c 73cb 073f
00000120: 9b5f a23e 289c 3b3d 1864 d43e 433e 353f
00000130: b658 843e be47 da3d 2bde b03e 6052 8b3f
00000140: b827 bb3e f0df 093e 3e6a b13e d2fb 293e
00000150: 9e13 f43d 5a82 993e 7c7e 453e 780a 7f3e
00000160: 629a 883e 2b54 0d3e 82bb e63e 37f1 f43d
00000170: 3c65 be3e 832e 3f3f 7057 eb3e 5b24 ab3d
00000180: 6ad8 963e 2187 273e 3ca8 7a3e 4d66 793e
00000190: 4bef 883e 7659 913e dc90 b23e 2b18 283e
000001a0: 0cbe 6f3e 5e1e 8a3e adeb d03d c6c1 f23c
000001b0: 1b4d 8e3d f3bb 0b3f 5e65 923e 9f45 783d
000001c0: 0ec3 913e 044f 103f 92e5 523e 55e8 1d3d
000001d0: db52 7f3e f1fe 803e 680c 0e3e 1392 053f
000001e0: 4b67 c33e 51e7 e63d c220 343d 67c3 203e
000001f0: b7f4 f73e 09ec e13d 1ba1 663e 5d59 413d
00000200: bfe1 1a3e e6c9 803e df16 103e 7104 5d3e
00000210: 9ad2 c13c c49d 823d 97dd e93d 9ae2 2b3e
00000220: c066 793d 75a1 123f af64 643e 6755 7d3d
00000230: be83 8b3e cd78 a63e 8d72 c83d 3602 443e
00000240: d60a 5f3c e3ce f63c 9037 703e b5fe dc3e
00000250: 1ba7 ab3d b65f c23e 39f0 a53d c842 2a3d
00000260: e518 b13e 3f5d 6e3e b0c3 423e b9a2 473e
00000270: eacb 333d 5f33 4c3d a08a 033e df10 ea3c
00000280: dff6 573e 4add 473e 55c9 e23d 588b 073e
00000290: 6e33 963e 29fb 9d3d b652 b33d a224 f13d
000002a0: 586a da3e 1f76 293e f7d7 8c3d 7aa4 123e
000002b0: 40e7 113d 71cd 833e 3b2f 4e3e f997 063f
000002c0: 62a9 8f3e 824c ee3e 3963 5d3d 4a80 cc3e
000002d0: 282c ae3e 2245 c43d d9a1 563d 137a 8f3e
000002e0: 7162 9b3d 3ef7 d23e 81f1 853e ddbc 993d
000002f0: 5ab2 ba3e 150a 753d 8bea 183f 95d8 3c3e
00000300: 46fa ff3d 472b 203e 7a07 c03e 68b7 6b3e
00000310: 3ec4 f03d c247 913e 4f80 693e d4d1 7d3d
00000320: 93b2 fa3c 9a37 543e 9960 a13d be78 a03d
00000330: ce4a 153e add5 593e 9f16 613d d0c4 b03e
00000340: c062 803e 7588 7d3e a5dc 873e 1144 503d
00000350: 28bc 293e a66f ec3d bd4a 3f3d 788d e53d
00000360: 495f 533e bd29 8a3e 4c79 423e f911 663d
00000370: bb9c 0b3e ffc1 493e 9457 cd3d d42e 8c3e
00000380: 7511 513e 806d aa3e 1be9 483e afda 2b3e
00000390: 5121 ed3d 81ec 383f 8f5f 7e3e 6b54 8a3c
000003a0: 9dba 363e f246 903d 051d b73e 006a b63e
000003b0: de39 223e 3906 f83e 86bf fb3e f809 923e
000003c0: 2ae6 e83e 2d6c 5c3e b74f 973e 6926 923d
000003d0: 44b0 ee3d b496 af3e d88f 653d 2de6 173e
000003e0: 53c6 633d 2c63 6d3d 7288 193e 13cb 533e
000003f0: 880a b43e 1d48 593d 008c 203d 7759 c53e
