ml-prediction/exoplanet_classifier.pth (torch, 275991 bytes, 20 tensors)

network.0.weight f4 [92]
0	0x3f8ddeae	1.1083581
1	0x3f735177	0.9504618
2	0x3f739641	0.95151144
3	0x385ec814	5.3115262e-05
4	0x3f851f7c	1.0400233
5	0x3f5c481f	0.8604755
6	0x3f7e84ed	0.9942158
7	0x3f91b5be	1.1383588
8	0x3f862006	1.0478523
9	0x3f8651d5	1.0493723
10	0x3f8f8f81	1.1215669
11	0x3f7a9e49	0.97897774
12	0x3f771d34	0.96528935
13	0x3f703f02	0.9384614
14	0x3f521b32	0.82072747
15	0x3f6e08e0	0.9298229
16	0x3f6b2e07	0.9186711
17	0x3f70dd62	0.94087803
18	0x3f6f3bc5	0.93450576
19	0x3f7bc506	0.9834751
20	0x3f75ded5	0.9604314
21	0x3f7282de	0.9473094
22	0x3f814b19	1.0101043
23	0x3f813332	1.0093749
24	0x3f8b1e33	1.0868591
25	0x3f58a4a2	0.8462621
26	0x3f6f78a8	0.9354348
27	0x3f4d3629	0.80160767
28	0x3f64317b	0.89138
29	0x3f5c1cc6	0.85981405
30	0x3f664750	0.89952564
31	0x385ec814	5.3115262e-05
32	0x385ec814	5.3115262e-05
33	0x3f5d5eb2	0.8647262
34	0x3f530f05	0.82444793
35	0x3f89432f	1.0723628
36	0x3f7d3c8a	0.989205
37	0x3f81a53b	1.0128549
38	0x3f776619	0.96640164
39	0x3f912b60	1.1341362
40	0x3f761a33	0.96133727
41	0x3f7b0a3c	0.9806249
42	0x3f6c7c16	0.9237684
43	0x3f75b5d3	0.95980567
44	0x3f85e3b0	1.046011
45	0x3f6c2f38	0.9225955
46	0x3f66bf91	0.9013606
47	0x3f7abb28	0.9794183
48	0x3f864f9d	1.0493046
49	0x3f734ed1	0.9504214
50	0x3f88e9fc	1.0696406
51	0x3f486378	0.7827678
52	0x3f6de96f	0.92934316
53	0x3f53fffd	0.8281248
54	0x3f6bc4d9	0.9209724
55	0x3f7224b3	0.9458725
56	0x3f60d5cd	0.87826234
57	0x3f6c8e0e	0.9240426
58	0x3f87bbf4	1.0604234
59	0x3f5f7756	0.8729147
60	0x3f6e8fe8	0.93188334
61	0x3f4c2674	0.79746175
62	0x3f5ecffb	0.87036103
63	0x3f56bbd9	0.8388038
64	0x3f4a823f	0.7910499
65	0x3f550c3e	0.83221805
66	0x3f585edb	0.8451974
67	0x3f8377f3	1.0270981
68	0x3f71052f	0.94148535
69	0x3f6d8c61	0.92792326
70	0x3f7ecb3b	0.99528855
71	0x3f69882c	0.91223407
72	0x3fa03e30	1.2518978
73	0x3f6fb64e	0.9363755
74	0x3f9f95d8	1.2467604
75	0x3f7f81d8	0.998075
76	0x3f7e050a	0.9922644
77	0x3f5f8db4	0.87325597
78	0x3f83d6c7	1.029992
79	0x3f717ec1	0.94334036
80	0x3f7e1756	0.9925436
81	0x3f51f439	0.8201328
82	0x3f6cc5ee	0.92489517
83	0x3f5c7858	0.8612113
84	0x3f72daf2	0.94865334
85	0x3f59dc36	0.8510164
86	0x3f855852	1.0417578
87	0x3f63aae7	0.8893265
88	0x3f73f1e8	0.95290995
89	0x3f64653b	0.89216965
90	0x3f9ca7d6	1.223872
91	0x3f62295e	0.8834437

network.0.bias f4 [92]
0	0x3e31353e	0.17305467
1	0x3e076aad	0.13224287
2	0x3c077b18	0.008269094
3	0xbefd3555	-0.49454752
4	0x3ddbdcc7	0.10735469
5	0x3e01b40a	0.12666336
6	0x3dadb871	0.08482445
7	0x3e3a5100	0.18194962
8	0x3e200250	0.15625882
9	0xbe11c043	-0.14233498
10	0x3e3181c5	0.1733466
11	0x3e0e288e	0.13882658
12	0xbe02d22b	-0.12775485
13	0x3e316c80	0.17326546
14	0x3e0b40f0	0.1359899
15	0xbe004c8d	-0.12529202
16	0x3e271325	0.16315897
17	0x3e6205e7	0.22072564
18	0xbde9c50c	-0.11414537
19	0x3e6f9953	0.23398332
20	0x3e16f81e	0.14743087
21	0x3dc891bc	0.097934216
22	0x3cc93d29	0.024565296
23	0xbe049c16	-0.12950167
24	0x3e06ccbf	0.13164042
25	0x3d9f4a07	0.077777915
26	0x3e2ff044	0.17181498
27	0xbe2bb39d	-0.16767736
28	0x3e10dd19	0.14146842
29	0x3e467d6f	0.19383787
30	0xbe7d7691	-0.2475226
31	0x3ef2326f	0.47304103
32	0x3ef0f1bb	0.47059426
33	0xbdee38a0	-0.11631894
34	0x3ddda732	0.108229056
35	0x3d8fd309	0.07022674
36	0x3c026652	0.007958965
37	0x3d665735	0.05623551
38	0xbad65db5	-0.0016354831
39	0x3e06acf8	0.1315192
40	0xbd8bb742	-0.06822063
41	0x3ce16c3c	0.02751743
42	0xbc846716	-0.016162436
43	0x3e041f4f	0.12902568
44	0x3d93ed01	0.07222939
45	0xbe2d9e2f	-0.16954874
46	0x3b11c5ca	0.0022243136
47	0x3ddc13be	0.10745953
48	0xbd556f30	-0.05210799
49	0xbd8b6367	-0.06806069
50	0xbdf83f66	-0.12121467
51	0x3c98f979	0.018673645
52	0x3e1f7f5d	0.15575929
53	0xbd96c359	-0.07361478
54	0xbcfdc23b	-0.030976405
55	0x3dfc13f1	0.12308491
56	0xbdc0783f	-0.09397935
57	0xbb649be3	-0.0034882955
58	0x3d9b7eb9	0.0759253
59	0xbd83add9	-0.06429643
60	0xbdb09593	-0.08622279
61	0x3df15c6c	0.11785206
62	0x3da0932e	0.07840572
63	0xbd34b2de	-0.044115894
64	0x3d1302d4	0.03589137
65	0xbd38e298	-0.04513797
66	0xbcedcb9d	-0.029027754
67	0xbd6f8323	-0.05847467
68	0x3cb67052	0.022270355
69	0xbcac930d	-0.021066213
70	0xbe2afe1e	-0.166985
71	0x3d87517e	0.0660734
72	0x3dac7314	0.08420387
73	0xbc805aad	-0.015668238
74	0xbdade564	-0.084910184
75	0xbd9c8244	-0.07642034
76	0x3d9007ff	0.07032775
77	0x3e2a45b1	0.16628148
78	0x3dc4292b	0.09578165
79	0x3d569f23	0.05239786
80	0xbd75f869	-0.060051356
81	0xbc809a3d	-0.015698547
82	0x3d74654c	0.059666917
83	0x3b622269	0.0034505373
84	0x3e0efce3	0.13963656
85	0xb90fb83f	-0.0001370618
86	0xbe0243e2	-0.12721208
87	0x3d93ef36	0.0722336
88	0xbd9660bd	-0.0734267
89	0x3d084de5	0.03327741
90	0x3dc02376	0.09381764
91	0x3d740fb1	0.059585277

network.0.running_mean f4 [92]
0	0xbbeb43de	-0.0071797213
1	0x3c6bbfee	0.014389021
2	0xbc6bbfee	-0.014389021
3	0x00000000	0.0
4	0xbbf42271	-0.007450395
5	0xbc44e939	-0.012018495
6	0xbccfd52d	-0.025370205
7	0x3cb52cc6	0.022116076
8	0x3d8c8e03	0.06863024
9	0xbd8c8e03	-0.06863024
10	0xbc373c4d	-0.01118381
11	0x3dcc0821	0.09962488
12	0xbdcc0821	-0.09962488
13	0xbc122cb8	-0.008921795
14	0xbc3df411	-0.0115938345
15	0xbca72738	-0.020404443
16	0x3dc28ffc	0.09500119
17	0x3daa1f02	0.083066955
18	0xbd93e826	-0.07222013
19	0xbca05024	-0.019569464
20	0xbcbaf352	-0.022821102
21	0x3c9a23d3	0.01881591
22	0x3c6e79d3	0.014555412
23	0xbc2b532f	-0.010456844
24	0x3c9c8b31	0.01910934
25	0xbca8dab3	-0.020612096
26	0xbc955b0a	-0.018231887
27	0x3c93a3a7	0.018022371
28	0x3b56835c	0.0032732105
29	0x3a8e6e85	0.0010866678
30	0xba8e6e85	-0.0010866678
31	0x00000000	0.0
32	0x00000000	0.0
33	0x3c75f3f9	0.015011781
34	0xbc48cac1	-0.012255372
35	0x3c9cb86a	0.019130904
36	0x3b1661d2	0.002294649
37	0xbd29d507	-0.041462924
38	0xbc3da140	-0.0115740895
39	0x3cc88d5a	0.024481464
40	0xbc1dd2bc	-0.0096327625
41	0xba89ce6d	-0.001051379
42	0x3c5f4e9b	0.013629581
43	0x3cac0a44	0.021000989
44	0xbcb2b0b0	-0.021812767
45	0xbc4c5c39	-0.0124731595
46	0x3d375793	0.04476125
47	0x3c8d337b	0.017236462
48	0x3cde4e0f	0.02713683
49	0xbcdfdbf8	-0.027326569
50	0xbd033381	-0.03203154
51	0xbc40ef7f	-0.01177585
52	0xbc4fd082	-0.0126839895
53	0x3c11b124	0.008892331
54	0x3ce4b66b	0.027919015
55	0x3d43f448	0.047840387
56	0xbcfbdad7	-0.030744
57	0x3d083bd4	0.03326018
58	0xbd84c412	-0.0648271
59	0xbc3c0797	-0.011476419
60	0xbc7e26b2	-0.015512155
61	0xbc5e191a	-0.013555789
62	0xbc745fec	-0.014915448
63	0xbae0bf40	-0.0017146841
64	0xbbfc60b3	-0.007701957
65	0xbbb05b1d	-0.0053819553
66	0xbbaaec3e	-0.0052161505
67	0x3cc8f21f	0.024529515
68	0x3cf8c937	0.030369384
69	0x3bec861f	0.007218137
70	0xbd99579a	-0.07487412
71	0x3c882b69	0.016622262
72	0xbd57f5f8	-0.05272481
73	0x3c648a18	0.01394894
74	0x3d93a617	0.072094135
75	0x3c8b89b8	0.017033443
76	0x3cdd6631	0.027026268
77	0xbca43f3e	-0.020049687
78	0xbd1b5246	-0.03792026
79	0xbca4bbbc	-0.02010905
80	0xbc8a2a2a	-0.016865809
81	0x3cef1c1b	0.029188206
82	0x3d2d2880	0.042274952
83	0x3c5f4210	0.01362659
84	0x3d33f2de	0.043932788
85	0x3cad5ab7	0.02116142
86	0xbc7fd377	-0.015614382
87	0x3ccfbcae	0.025358524
88	0x3d4950aa	0.049149193
89	0x3d085b1e	0.03329002
90	0x3d0cfe3f	0.034422155
91	0x3c9689ee	0.018376317

network.0.running_var f4 [92]
0	0x3cefa7dd	0.029254848
1	0x3f5bb17c	0.85817695
2	0x3f5bb17c	0.85817695
3	0x00000004	6e-45
4	0x3f17e184	0.59328485
5	0x3f57982e	0.8421658
6	0x3f8eb7b2	1.1149809
7	0x3fa10d15	1.2582117
8	0x400d5f5e	2.2089458
9	0x400d5f5e	2.2089458
10	0x3fa0969c	1.2545962
11	0x412aef72	10.683458
12	0x412aef72	10.683458
13	0x3f15d7ea	0.58532584
14	0x3f58314f	0.8445024
15	0x3f8fa7c7	1.1223077
16	0x400f1a36	2.2359748
17	0x3fad9a4a	1.356271
18	0x3fd36237	1.6514348
19	0x3e529867	0.2056595
20	0x3e7dcfed	0.24786349
21	0x3e1b543d	0.15168853
22	0x3ebe4b56	0.37166852
23	0x3f80d4d1	1.0064946
24	0x3f82a152	1.0205481
25	0x3d40cddf	0.047071334
26	0x3e6bc655	0.23024876
27	0x3d2676cc	0.040640637
28	0x3d9ac4b7	0.07557052
29	0x3d805b60	0.062674284
30	0x3d805b60	0.062674284
31	0x00000004	6e-45
32	0x00000004	6e-45
33	0x3f8441f1	1.0332624
34	0x3f823467	1.0172242
35	0x3fc1a01b	1.5126985
36	0x3f8e8716	1.1134975
37	0x3f391821	0.7230244
38	0x3f6af740	0.91783524
39	0x3f81c3ba	1.0137856
40	0x3f6460a7	0.8920998
41	0x3f7c7727	0.9861931
42	0x3f8be506	1.0929267
43	0x3f850fda	1.0395463
44	0x3f918882	1.1369784
45	0x3f80c400	1.0059814
46	0x3f844938	1.0334845
47	0x3f754f83	0.9582445
48	0x3f89f86d	1.0778939
49	0x3f7c9538	0.9866519
50	0x3f83bd7b	1.02922
51	0x3edd8ea1	0.4327288
52	0x3ed0cfef	0.4078364
53	0x3e6e083d	0.2324533
54	0x3f8a3f49	1.0800563
55	0x3fb324c1	1.3995591
56	0x3f83da8b	1.0301069
57	0x3f819468	1.0123415
58	0x3f791554	0.9729817
59	0x3f82ee93	1.0229057
60	0x3f8428f4	1.0324998
61	0x3f83715e	1.0268972
62	0x3f7e654d	0.9937332
63	0x3f7b14d4	0.98078656
64	0x3f7fb0ed	0.9987934
65	0x3f7db2e1	0.9910107
66	0x3f7e6ba8	0.9938302
67	0x3f87828b	1.0586714
68	0x3f81d64a	1.0143521
69	0x3f81e9b3	1.0149444
70	0x3f7767b0	0.9664259
71	0x3f79f6d2	0.9764224
72	0x40014e2f	2.020397
73	0x3f81d3f9	1.0142814
74	0x3fe6d6a7	1.8034257
75	0x3f7a589b	0.9779145
76	0x3f62a0a8	0.8852639
77	0x3bf8d2d9	0.0075934944
78	0x3f323b9c	0.69622207
79	0x3c2f3638	0.010694079
80	0x3f8fb4da	1.1227067
81	0x3f4e8e7f	0.8068618
82	0x3f856d10	1.0423908
83	0x3f623d0d	0.88374406
84	0x3f8610d8	1.047389
85	0x3f57e328	0.8433099
86	0x3f8debc2	1.1087573
87	0x3f45138f	0.7698297
88	0x3f8746fa	1.0568535
89	0x3f7b4c7f	0.981636
90	0x3f8889aa	1.0667012
91	0x3f4f9b50	0.81096363

network.1.weight f4 [256, 92]
0	0x3d6d57bf	0.05794501
1	0x3d85b0a1	0.0652783
2	0xbc12036b	-0.008911948
3	0x3e04c3ae	0.12965271
4	0xbce0171d	-0.027354771
5	0xbcc0cbf1	-0.023534747
6	0xbd16ea58	-0.03684458
7	0x3e13690f	0.14395545
8	0x3df1f989	0.11815173
9	0xbdd49892	-0.10380663
10	0x3de934f6	0.113870546
11	0x3d3757dd	0.044761527
12	0x3d4e8a97	0.05042514
13	0xbc5e06b2	-0.013551401
14	0x3c294ff3	0.010334003
15	0x3a32fe1e	0.00068280275
16	0x3d1f3870	0.038872182
17	0xbd45b81d	-0.048271287
18	0x3b08171d	0.002076573
19	0xbb7a489d	-0.0038190254
20	0xbda18dec	-0.078883976
21	0x3affb3b7	0.0019508515
22	0xbe1bbb5f	-0.15208195
23	0x3d912cd7	0.07088631
24	0xbcf790a7	-0.030220343
25	0xbd54cf11	-0.051955286
26	0xbc5fa22a	-0.013649503
27	0xbd025480	-0.031818867
28	0xbd2d9b1e	-0.04238426
29	0xbe660990	-0.22464585
30	0x3e67dd17	0.22642933
31	0xbe1015b4	-0.14070779
32	0x3b7e9ece	0.003885198
33	0x3ce8f364	0.02843637
34	0xbcc4d992	-0.024029527
35	0x3d790006	0.060791038
36	0xbd03901c	-0.032119855
37	0x3c8cc0d1	0.017181786
38	0x3c07d111	0.008289591
39	0x3cf5afc8	0.029991046
40	0x3c66dd9d	0.014090923
41	0x3c3b1aca	0.011419961
42	0x3c001271	0.007816897
43	0x3de1cc36	0.11025278
44	0x3df6b574	0.12046328
45	0xbc284371	-0.0102699855
46	0x3cd51626	0.026011538
47	0xbc0df05c	-0.008663263
48	0x3daba183	0.08380415
49	0xbd1ef8cd	-0.038811494
50	0xbe09d364	-0.13459545
51	0xbd9ba8a8	-0.07600528
52	0xbc9c574d	-0.019084597
53	0x3e070d4c	0.13188666
54	0xbc853be3	-0.016263908
55	0x3d63830a	0.05554489
56	0x3df466a3	0.11933639
57	0xbb956580	-0.004559219
58	0x3d9f8e43	0.07790806
59	0xbd8bd0ee	-0.068269596
60	0x3d113149	0.035447393
61	0xbd89f33e	-0.06735848
62	0x3d24a1ef	0.040193494
63	0xbcfcef71	-0.030875893
64	0x3d6acc05	0.057323474
65	0xba63445b	-0.00086695486
66	0x3dcbb9ad	0.09947524
67	0xbd73c460	-0.05951345
68	0xbcc6c1fa	-0.024262417
69	0xbd16dcd1	-0.03683168
70	0x3d1fb111	0.038987223
71	0x3d693240	0.056932688
72	0x3e08a5f1	0.13344552
73	0xbd7132bd	-0.05888628
74	0xbe849057	-0.25891373
75	0xbd64ea11	-0.055887286
76	0xbd9939d6	-0.074817345
77	0x3d4160c6	0.04721143
78	0x3dad6f9e	0.08468555
79	0x3dc8cb05	0.09804348
80	0xbd7094b1	-0.058735553
81	0xbcedbca9	-0.029020624
82	0xbd30f61a	-0.04320345
83	0xbd5c28b9	-0.053749774
84	0x3d670beb	0.05640785
85	0xbc788a0e	-0.015169634
86	0x3d365108	0.04451087
87	0xbd5e548a	-0.05427984
88	0xbd8c2f7b	-0.06844994
89	0x3c8d8f1b	0.017280152
90	0x3e0f9c8d	0.14024563
91	0xbd4f3598	-0.05058822
92	0xbca41a1c	-0.020031981
93	0x3e10bb48	0.14133942
94	0xbe1ab6b1	-0.15108754
95	0x3dc6f338	0.09714359
96	0x3e356cba	0.17717257
97	0xbdeb80a2	-0.11499144
98	0xbe0814b2	-0.13289145
99	0xbda0ca74	-0.07851115
100	0xbe017843	-0.12643532
101	0x3dbdfbf3	0.09276571
102	0xbdff56f5	-0.124677576
103	0xbe2b130a	-0.16706482
104	0x3dbdf5a9	0.092753716
105	0xbda39440	-0.07987261
106	0xbe153dfb	-0.14574425
107	0xbc295558	-0.010335289
108	0xbde4c212	-0.111698285
109	0xbe350e23	-0.17681174
110	0x3ba6907f	0.0050831432
111	0xbbe9beec	-0.0071333554
112	0x3a136526	0.0005622677
113	0xbd3185a9	-0.04334036
114	0xbcfba087	-0.030716194
115	0x3d0bf724	0.03417124
116	0xbc19f2a0	-0.009396225
117	0xbdb90728	-0.09034568
118	0xbcc4be44	-0.024016507
119	0xbd866129	-0.065615006
120	0xbd54176d	-0.051780153
121	0xbc6e7644	-0.014554564
122	0xbcd48ba4	-0.025945492
123	0xbe426d62	-0.18987039
124	0xbe3eb6dc	-0.18624443
125	0xbd824848	-0.06361443
126	0xbd379b43	-0.044825803
127	0xbe33de90	-0.1756537
128	0x3e073e88	0.13207448
129	0x3d3d1883	0.046165954
130	0x3dea41c6	0.114383265
131	0x3c87809e	0.016540822
132	0xbcb2c54f	-0.0218226
133	0x3d0caaf2	0.034342714
134	0xbdafe1ec	-0.08588013
135	0xbdbf03bc	-0.09326884
136	0xbdf1c8b3	-0.118058585
137	0xbded9c0b	-0.116020285
138	0x3b509406	0.003182651
139	0xbc9585b7	-0.018252237
140	0x3abe1280	0.0014501363
141	0xbdbb608d	-0.09149275
142	0x3e067576	0.13130745
143	0xbc893966	-0.016751003
144	0xbd32a4db	-0.04361425
145	0xbd08ab6b	-0.033366602
146	0x3d60c3e9	0.054874334
147	0x3df691e2	0.12039544
148	0x3d8f6565	0.07001761
149	0x3ae6776c	0.0017583198
150	0x3c7169ff	0.014734744
151	0x3b8ad592	0.0042368853
152	0x3d1e2596	0.038610063
153	0xbd244e52	-0.040113755
154	0x3de491e7	0.11160641
155	0xbd8dee27	-0.069301896
156	0x3d825425	0.063637055
157	0x3d4f4260	0.05060041
158	0x3d3cfbbd	0.046138514
159	0xbca319c7	-0.019909753
160	0x3dfaa5e1	0.1223867
161	0x3cba446d	0.022737706
162	0x3d804578	0.0626325
163	0xbdac0245	-0.083988704
164	0xbd220d2e	-0.03956335
165	0xbc750348	-0.014954396
166	0xbd6540e5	-0.05597009
167	0x3dd53e14	0.10412231
168	0x3d97cc3c	0.074120015
169	0xbdff9f25	-0.12481526
170	0xbd1cf909	-0.038323436
171	0xbd253dbb	-0.040342074
172	0x3e08b63b	0.13350765
173	0x3d403f06	0.046935104
174	0xbe04efc7	-0.12982093
175	0xbd848ade	-0.06471799
176	0xbdeb5a2b	-0.114918076
177	0x3daac40d	0.08338175
178	0x3d538cc0	0.0516479
179	0xbcd596d0	-0.02607289
180	0x3caac563	0.020846074
181	0x3d14ccb1	0.03632802
182	0xbdbea83d	-0.09309433
183	0xbc62ae94	-0.013835568
184	0x3cc45df7	0.023970587
185	0xbd8317ed	-0.06401048
186	0x3e0defad	0.1386096
187	0x3df18355	0.11792628
188	0xbcc44aaa	-0.023961384
189	0x3cfacc83	0.030615097
190	0xbd11d1e7	-0.03560057
191	0xba3e39e8	-0.00072565535
192	0x3d6a5762	0.05721224
193	0x3dc7ab86	0.097495124
194	0x3d82f8d6	0.06395118
195	0xbca7614b	-0.020432135
196	0xbb07f305	-0.0020744216
197	0xbcb1bd06	-0.021696579
198	0x3d5f19fe	0.054468147
199	0x3c83804b	0.016052386
200	0xbe99cf19	-0.30040815
201	0xbd979b86	-0.074027106
202	0x3eaccc76	0.3374974
203	0x3d59b1d6	0.053148113
204	0xbc0142b9	-0.007889443
205	0xbdd6e61c	-0.10493109
206	0xbe13a276	-0.14417443
207	0xbdd74c0f	-0.10512554
208	0xbd2081b0	-0.03918618
209	0x3d1820b4	0.037140563
210	0x3d8bfbd0	0.06835139
211	0x3d899674	0.0671815
212	0xbe5df31c	-0.2167477
213	0xbe3cd7b7	-0.18441664
214	0x3df9f817	0.122055225
215	0xbd7d8e50	-0.061903298
216	0xbdee07f9	-0.116226144
217	0xbcf007f8	-0.029300675
218	0x3d324049	0.04351834
219	0x3c83cb7a	0.016088236
220	0xbd5af8c4	-0.053459898
221	0x3d5ad9fc	0.053430542
222	0xbd78f29c	-0.060778245
223	0x3c88e44c	0.016710423
224	0xbde20263	-0.110356115
225	0x3d91774c	0.07102832
226	0x3d77497e	0.060372822
227	0x3d1247b7	0.035712924
228	0xbc85f098	-0.016350076
229	0xbe0a3513	-0.13496809
230	0xbd19dba1	-0.03756297
231	0x3d3fd5c1	0.04683471
232	0x3b950a4f	0.004548348
233	0x3e018573	0.12648563
234	0x3d373cde	0.04473578
235	0x3ce76885	0.028248081
236	0x3bbe7a8e	0.0058129495
237	0xbdbbc5b9	-0.09168572
238	0xbe078c8c	-0.13237208
239	0xbdf6c9a4	-0.12050179
240	0x3db277d3	0.08714261
241	0xbda2e9be	-0.07954739
242	0x3bdafada	0.006682736
243	0xbcc2e5fe	-0.02379131
244	0x3d0bff66	0.034179114
245	0xbd215b5f	-0.03939378
246	0xbd0823e8	-0.033237368
247	0x3da12075	0.07867519
248	0x3c929d60	0.017897308
249	0x3ddf235e	0.10895418
250	0x3c0feacd	0.008784008
251	0xbdd77ef5	-0.10522262
252	0xbcbf35eb	-0.02334114
253	0xbca68727	-0.020328118
254	0x3c4b8295	0.01242127
255	0xbd9d0728	-0.076673806

network.1.bias f4 [256]
0	0x395318e8	0.00020131806
1	0xbc2d1fc6	-0.010566657
2	0xbd4ed565	-0.050496478
3	0x3a89178e	0.001045929
4	0xbce2a169	-0.027664857
5	0xbdc96fd9	-0.09835786
6	0xbd3fd28b	-0.04683165
7	0xbdf8e8b5	-0.1215376
8	0xbc85823f	-0.016297458
9	0xbdaae0e7	-0.08343678
10	0xbdd7f0f0	-0.10544002
11	0xbd7d5006	-0.061843894
12	0xbe11ecf9	-0.14250554
13	0xbdea4668	-0.1143921
14	0xbe1e216b	-0.15442435
15	0xbdf2d626	-0.11857252
16	0xbe104785	-0.14089783
17	0xbdb854bb	-0.09000536
18	0x3d8b02d7	0.06787651
19	0xbd9690c1	-0.07351828
20	0xbd45a78a	-0.04825548
21	0xbe318223	-0.173348
22	0xbe0f3871	-0.13986374
23	0x3d869616	0.06571595
24	0xbe0576f7	-0.13033663
25	0xbdde2b05	-0.10848049
26	0xbdc669f3	-0.09688177
27	0xbdfa00a4	-0.122071534
28	0x3c11c9ab	0.008898179
29	0xbd65461d	-0.05597507
30	0xbe01dcb6	-0.12681851
31	0x3ce86935	0.02837048
32	0x3dcfc66f	0.1014527
33	0xbd907dcc	-0.07055244
34	0xbda613ca	-0.08109243
35	0xbde8e85c	-0.11372444
36	0xbdbb7d6d	-0.091547824
37	0xbe82e289	-0.25563458
38	0xbd855392	-0.065100804
39	0xbdd1f994	-0.102526814
40	0xbdf85725	-0.121259965
41	0xbd8fdb97	-0.07024305
42	0xbe64c83a	-0.22342005
43	0xbe238b7d	-0.1597118
44	0x3c234a13	0.009966391
45	0xbe31f546	-0.1737872
46	0xbdc11359	-0.094275184
47	0x3caed3f8	0.021341309
48	0xbe0af1fc	-0.13568872
49	0xbd7eef1b	-0.062239747
50	0xbe26e62e	-0.16298744
51	0xbe2b1aab	-0.16709392
52	0xbdf5ddeb	-0.12005218
53	0xbd800e21	-0.06252695
54	0xbe0235eb	-0.1271588
55	0xbe1bf132	-0.15228727
56	0x3bdb1276	0.0066855503
57	0x3d2c1af3	0.04201789
58	0xbde7822b	-0.113041244
59	0xbe5aa485	-0.21351822
60	0xbc903c6f	-0.017606942
61	0xbe4d79e5	-0.2006603
62	0xbd87a33c	-0.06622931
63	0xbdfab390	-0.1224128
64	0x3cc3d14e	0.023903515
65	0x3cc16677	0.02360843
66	0xbd70b636	-0.05876752
67	0xbdbbbfcc	-0.09167442
68	0xbe815a86	-0.25264376
69	0x3d011863	0.031517398
70	0xbcd7978f	-0.026317386
71	0xba57d223	-0.0008232912
72	0xbd9e6668	-0.07734376
73	0xbe028e4a	-0.12749591
74	0xbd3ad42f	-0.04561251
75	0x3d95b5b6	0.07310049
76	0xbd92d1e9	-0.071689434
77	0xbe2959c4	-0.16538149
78	0x3d8237d2	0.06358303
79	0x3cde2c7f	0.027120827
80	0x3b900ce3	0.0043960675
81	0x3d2a76db	0.041617256
82	0x3c59f552	0.013303118
83	0x3dd4e225	0.10394696
84	0x3c8a84eb	0.016909083
85	0xbe56b730	-0.20968318
86	0xbe113f7a	-0.1418437
87	0xbd1d8099	-0.03845272
88	0xbdf20d56	-0.1181895
89	0xbe846b48	-0.258631
90	0xbdae2655	-0.08503405
91	0xbe40904a	-0.18805042
92	0xbdaa1ced	-0.083062984
93	0x3b6e08a0	0.003632106
94	0xbd9b968b	-0.07597073
95	0xbd807a8b	-0.06273373
96	0xbdcc82ec	-0.09985909
97	0xbe18ec60	-0.1493392
98	0xbd0d4c11	-0.03449637
99	0xbdbb3b7b	-0.091422044
100	0xbba5d087	-0.005060259
101	0xbe3415ee	-0.1758649
102	0xbd002404	-0.031284347
103	0xbd3a2ad9	-0.04545102
104	0xbd891402	-0.06693269
105	0xbcc2bd2c	-0.023771845
106	0x3be3e3cd	0.006954646
107	0x3a1e7d9c	0.0006045939
108	0xbe130ffe	-0.1436157
109	0xbd9b7de6	-0.075923726
110	0xbe2fa4d1	-0.17152716
111	0xbe5ff405	-0.2187043
112	0xbde24a71	-0.11049355
113	0x3c80ec51	0.015737684
114	0xbdad3c7c	-0.08458802
115	0xbd5c3267	-0.053759005
116	0xbd9eb65c	-0.07749626
117	0xbd1cbf8c	-0.03826861
118	0xbc2d0214	-0.0105595775
119	0x3d87e2b1	0.06635035
120	0x3d542eca	0.051802434
121	0xbdf5a38c	-0.11994085
122	0xbe195b88	-0.14976323
123	0x3def0f01	0.11672784
124	0xbd37e352	-0.044894524
125	0xbd56a4d9	-0.052403305
126	0xbd9edca3	-0.07756927
127	0xbe611684	-0.21981245
128	0xbdd5ed1c	-0.10445616
129	0xbd6131e4	-0.05497922
130	0xbba05681	-0.0048931246
131	0xbe0ae975	-0.1356562
132	0xbe591dfe	-0.21202847
133	0xbe1303d8	-0.14356935
134	0xbd551877	-0.052025285
135	0xbda7e79f	-0.08198475
136	0xbd5f6b85	-0.054545898
137	0xbd3b5ea9	-0.04574457
138	0xbe181401	-0.14851381
139	0xbdac7f22	-0.08422686
140	0xbe3b91ac	-0.18317288
141	0x3cd78246	0.026307236
142	0xbdcad698	-0.09904212
143	0xbd33189a	-0.043724634
144	0xbd042bea	-0.032268442
145	0xbc8dd91d	-0.017315442
146	0xbe142a59	-0.1446928
147	0xbcec733d	-0.028863544
148	0xbd97df2f	-0.07415616
149	0xbd52adb2	-0.05143518
150	0xbcc76d57	-0.02434413
151	0xbe097db8	-0.13426864
152	0xbdb0603c	-0.08612105
153	0xbe21ae2c	-0.15789098
154	0xbd79326d	-0.060839105
155	0xbe19957d	-0.14998432
156	0xbdf428bf	-0.11921834
157	0xbe234751	-0.15945174
158	0xbc0e1b7a	-0.008673543
159	0xbdf2c69c	-0.11854288
160	0xbe3c2bbf	-0.18376063
161	0xbbde5970	-0.006785564
162	0xbd950cf2	-0.0727786
163	0x3d589981	0.052880768
164	0x3ca4a7fd	0.020099634
165	0x3cb12176	0.0216224
166	0xbe14e2c9	-0.14539637
167	0xbe0b43ec	-0.13600129
168	0xbe69b484	-0.22822767
169	0xbc3e78ba	-0.011625463
170	0xbd258d86	-0.04041817
171	0xbe17dd5b	-0.14830534
172	0xbdbfe5ff	-0.0937004
173	0xbbb22b4c	-0.0054372903
174	0xbe1cb7ad	-0.15304442
175	0xbd87d56c	-0.06632504
176	0xbe0742cf	-0.13209079
177	0xbdc9af3b	-0.09847876
178	0xbe05bfe9	-0.13061489
179	0xbdb02240	-0.08600283
180	0xbc0b4ec3	-0.008502665
181	0xbe56a577	-0.20961557
182	0xbe071779	-0.13192548
183	0xbdf36e5a	-0.11886282
184	0x3cf02f52	0.02931944
185	0x3c9e76b4	0.019343711
186	0xbe2da662	-0.16958001
187	0xbe3e59e5	-0.1858898
188	0x3c16992b	0.0091917915
189	0xbd927009	-0.07150275
190	0x3daaf9ba	0.08348413
191	0xbdca9c41	-0.09893084
192	0x3b59d5ec	0.003323908
193	0xbd272981	-0.040811066
194	0xbc99ac79	-0.018759
195	0xbd923433	-0.071388625
196	0xbe140bb0	-0.14457583
197	0xbd304eef	-0.043044027
198	0x3d511e6a	0.051054396
199	0xbd87b0b3	-0.066254996
200	0xbccc182d	-0.024913872
201	0xbdaaf31d	-0.083471514
202	0xbe571ea1	-0.21007778
203	0xbd984b8b	-0.07436284
204	0xbd551b5a	-0.052028038
205	0xbde8c42e	-0.11365543
206	0xbdb9535e	-0.09049104
207	0xbd8242e7	-0.06360417
208	0xbc890cfc	-0.016729824
209	0xbe35daba	-0.17759219
210	0xbd89b57b	-0.06724068
211	0xbc5fc0dc	-0.013656821
212	0xbe001211	-0.12506892
213	0xbd18dd7e	-0.037320606
214	0xbe4378be	-0.19089028
215	0xbd17d71b	-0.037070375
216	0xbccad2f6	-0.024758797
217	0xbdbf0954	-0.09327951
218	0xbd516c8d	-0.051128913
219	0xbe0447d4	-0.12918025
220	0xbdf2be0d	-0.118526556
221	0xbdb62caf	-0.088952415
222	0xbdd2f355	-0.10300318
223	0xbe03ffc2	-0.12890533
224	0xbda11d59	-0.07866926
225	0xbd99ad2a	-0.075037315
226	0x3b2764b5	0.0025542204
227	0xbd157d29	-0.036496315
228	0xbde5f704	-0.11228755
229	0xbd8695ed	-0.06571565
230	0xbe2413aa	-0.16023126
231	0xbd703716	-0.058646284
232	0x3ce04333	0.027375793
233	0xbd19d2c8	-0.037554532
234	0xbd0b43e8	-0.034000307
235	0xbd2d3abe	-0.04229235
236	0xbdb2e48d	-0.08734999
237	0x3c86ba2f	0.016446201
238	0xbbf7683e	-0.0075502684
239	0xbe1fdbf3	-0.15611248
240	0xbde476b9	-0.11155457
241	0xbe08fc68	-0.13377535
242	0xbdfb5b80	-0.122733116
243	0xbdc19cf2	-0.09453763
244	0xbdc2b4e9	-0.09507162
245	0xbdcfdd63	-0.10149648
246	0xbe46d4cf	-0.19417118
247	0xbe322b44	-0.17399317
248	0xbd6311ff	-0.055437084
249	0xbd6dfd83	-0.058103096
250	0xbcb719a6	-0.022351097
251	0x3c4cddb3	0.012504029
252	0xbdb995b7	-0.09061759
253	0xbde48c0c	-0.11159524
254	0x3d15a7cc	0.036536977
255	0xbb08a764	-0.0020851726

network.4.weight f4 [256]
0	0x3f81c2ae	1.0137537
1	0x3f800ab1	1.0003263
2	0x3f766ac0	0.9625664
3	0x3f6cc85f	0.9249324
4	0x3f6d538a	0.92705595
5	0x3f76cdb6	0.9640764
6	0x3f73b112	0.9519206
7	0x3f7f5be3	0.99749583
8	0x3f811cf0	1.0086956
9	0x3f74057f	0.95320886
10	0x3f81c449	1.0138026
11	0x3f83ffbd	1.031242
12	0x3f697ee2	0.9120923
13	0x3f7e3ffc	0.9931638
14	0x3f851f82	1.040024
15	0x3f787799	0.9705749
16	0x3f887a6a	1.0662358
17	0x3f87a1aa	1.0596211
18	0x3f80a013	1.0048851
19	0x3f81cada	1.014003
20	0x3f7c847f	0.98639673
21	0x3f7db91b	0.99110574
22	0x3f6a839c	0.9160707
23	0x3f64d974	0.8939431
24	0x3f674b40	0.903492
25	0x3f847a01	1.0349733
26	0x3f7dd862	0.991583
27	0x3f8414eb	1.0318884
28	0x3f69b2ce	0.9128846
29	0x3f75b277	0.9597544
30	0x3f81478c	1.0099959
31	0x3f54fe9a	0.8320099
32	0x3f7d0888	0.9884114
33	0x3f77bead	0.96775323
34	0x3f7b36d3	0.9813053
35	0x3f82872a	1.0197499
36	0x3f77fcb4	0.9686997
37	0x3f752f35	0.9577516
38	0x3f7c9fcd	0.98681337
39	0x3f7c9dcd	0.98678285
40	0x3f7c76ea	0.9861895
41	0x3f81fbd1	1.0154973
42	0x3f849868	1.0359011
43	0x3f7611e9	0.9612108
44	0x3f836987	1.0266579
45	0x3f8001b8	1.0000525
46	0x3f7a56b1	0.9778853
47	0x3f73b033	0.95190734
48	0x3f7c5ae0	0.98576164
49	0x3f7aecac	0.9801738
50	0x3f8153c4	1.0103688
51	0x3f7558ae	0.9583844
52	0x3f7ecda1	0.99532515
53	0x3f880083	1.0625156
54	0x3f837e63	1.0272945
55	0x3f80a66d	1.0050789
56	0x3f7913f7	0.9729609
57	0x3f817a44	1.0115438
58	0x3f765b94	0.9623349
59	0x3f888562	1.0665705
60	0x3f6fb11a	0.9362961
61	0x3f7d4d18	0.9894576
62	0x3f728ae5	0.94743186
63	0x3f80cdb8	1.006278
64	0x3f71c203	0.94436663
65	0x3f7a9438	0.97882414
66	0x3f78e3b6	0.9722246
67	0x3f724d84	0.9464953
68	0x3f83e2e4	1.0303617
69	0x3f759a13	0.95938224
70	0x3f79812b	0.9746272
71	0x3f807828	1.0036669
72	0x3f7a0a4e	0.97671974
73	0x3f833715	1.0251185
74	0x3f7e8c5f	0.9943294
75	0x3f713c8e	0.94233024
76	0x3f761e1f	0.9613971
77	0x3f7fad91	0.99874216
78	0x3f7a342e	0.9773587
79	0x3f6c0a52	0.9220325
80	0x3f8238bd	1.0173565
81	0x3f6892f3	0.90849227
82	0x3f802f71	1.0014478
83	0x3f7084ef	0.9395284
84	0x3f6cfd84	0.92574334
85	0x3f723e17	0.9462599
86	0x3f7ffa9f	0.9999179
87	0x3f72f831	0.9490996
88	0x3f58505b	0.8449761
89	0x3f87c898	1.0608091
90	0x3f805d17	1.0028409
91	0x3f8ee141	1.1162492
92	0x3f80b20b	1.0054334
93	0x3f6cb069	0.9245668
94	0x3f6a5b9c	0.91546035
95	0x3f7d9caa	0.99067175
96	0x3f78fea5	0.97263557
97	0x3f76eed7	0.9645819
98	0x3f7fe465	0.9995788
99	0x3f802188	1.0010233
100	0x3f7ada51	0.97989374
101	0x3f790631	0.9727507
102	0x3f7f4e53	0.9972889
103	0x3f7d3605	0.9891055
104	0x3f827af8	1.0193777
105	0x3f800977	1.0002888
106	0x3f662969	0.89906937
107	0x3f79cf87	0.97582287
108	0x3f715fd7	0.94286865
109	0x3f73e581	0.9527207
110	0x3f830da4	1.0238538
111	0x3f846b95	1.0345331
112	0x3f7fdeb3	0.9994919
113	0x3f71f3c0	0.9451256
114	0x3f8131b8	1.0093298
115	0x3f8014a8	1.0006304
116	0x3f81d838	1.014411
117	0x3f7790ac	0.96705127
118	0x3f7425e8	0.9537034
119	0x3f680076	0.90625703
120	0x3f676c1b	0.9039933
121	0x3f842624	1.032414
122	0x3f741e95	0.95359164
123	0x3f5f15fe	0.8714293
124	0x3f704665	0.93857414
125	0x3f85f399	1.0464965
126	0x3f80088d	1.000261
127	0x3f89098b	1.0706037
128	0x3f6366eb	0.88828915
129	0x3f821bce	1.0164735
130	0x3f6b2cb6	0.918651
131	0x3f81b8fb	1.0134577
132	0x3f841e5f	1.0321769
133	0x3f870834	1.0549378
134	0x3f6fe0ee	0.9370259
135	0x3f6bfb2b	0.92180127
136	0x3f8388eb	1.0276159
137	0x3f83c667	1.0294923
138	0x3f77665d	0.9664057
139	0x3f79f73d	0.9764288
140	0x3f631c68	0.8871522
141	0x3f748586	0.9551624
142	0x3f7d3db7	0.98922294
143	0x3f6f6f9f	0.93529695
144	0x3f6cbcf5	0.92475826
145	0x3f797c5c	0.9745538
146	0x3f75b18f	0.9597406
147	0x3f7e7563	0.9939787
148	0x3f5ecc5a	0.87030566
149	0x3f82080a	1.0158703
150	0x3f6f2ae1	0.93424803
151	0x3f7e6420	0.9937153
152	0x3f70a29f	0.9399814
153	0x3f8179b6	1.0115268
154	0x3f7605a4	0.96102357
155	0x3f8617cd	1.0476013
156	0x3f751caa	0.9574686
157	0x3f69b288	0.9128804
158	0x3f781b1c	0.96916366
159	0x3f7ef08e	0.9958581
160	0x3f80e93d	1.0071179
161	0x3f67c336	0.90532243
162	0x3f69dee0	0.91355705
163	0x3f6e4ca5	0.930857
164	0x3f7899f6	0.97109926
165	0x3f79994b	0.9749953
166	0x3f814483	1.0099033
167	0x3f87c82b	1.0607961
168	0x3f7feb90	0.99968815
169	0x3f7a73fb	0.9783322
170	0x3f789973	0.97109145
171	0x3f723819	0.9461685
172	0x3f798e3c	0.9748266
173	0x3f7cb896	0.98719156
174	0x3f753cc4	0.95795846
175	0x3f7da50f	0.99079984
176	0x3f7b7a76	0.98233736
177	0x3f7c045f	0.9844417
178	0x3f7684e0	0.962965
179	0x3f72cf22	0.9484731
180	0x3f8062ba	1.0030129
181	0x3f713d10	0.942338
182	0x3f8cff62	1.1015437
183	0x3f7b1ed5	0.9809392
184	0x3f616de4	0.88058305
185	0x3f726a9c	0.94693923
186	0x3f82ed5a	1.0228684
187	0x3f7e4cfc	0.9933622
188	0x3f6a8a6f	0.9161748
189	0x3f813dd9	1.0097
190	0x3f6f521c	0.93484664
191	0x3f87d002	1.0610354
192	0x3f7d29fc	0.9889219
193	0x3f84f955	1.038859
194	0x3f7c751a	0.9861618
195	0x3f64431e	0.8916491
196	0x3f89ce62	1.0766108
197	0x3f76fc9c	0.964792
198	0x3f7a01c1	0.97658926
199	0x3f80c8b0	1.0061245
200	0x3f74bc0c	0.95599437
201	0x3f7c1594	0.98470426
202	0x3f828847	1.0197839
203	0x3f869f80	1.0517426
204	0x3f814e9b	1.0102113
205	0x3f75bff9	0.9599605
206	0x3f7ae583	0.9800646
207	0x3f7c752a	0.9861628
208	0x3f65d2f3	0.8977501
209	0x3f801788	1.0007181
210	0x3f831240	1.0239944
211	0x3f739638	0.9515109
212	0x3f767b19	0.9628158
213	0x3f719aec	0.9437702
214	0x3f8710d6	1.0552013
215	0x3f8244ab	1.0177206
216	0x3f7d4cd7	0.98945373
217	0x3f81041d	1.007938
218	0x3f76f8f8	0.96473646
219	0x3f83bd2f	1.0292109
220	0x3f811e99	1.0087463
221	0x3f767191	0.9626704
222	0x3f74e96a	0.9566866
223	0x3f81b6cf	1.0133914
224	0x3f7cdb50	0.98772144
225	0x3f6d9971	0.9281226
226	0x3f6a0fc9	0.91430336
227	0x3f7e329b	0.9929597
228	0x3f84a194	1.036181
229	0x3f77fcb5	0.96869975
230	0x3f7bb1c7	0.9831814
231	0x3f816d46	1.0111473
232	0x3f782b5d	0.9694117
233	0x3f6cd82c	0.9251735
234	0x3f864ab3	1.0491546
235	0x3f84e983	1.0383762
236	0x3f7ef273	0.995887
237	0x3f7d46d7	0.9893622
238	0x3f76874e	0.9630021
239	0x3f8939af	1.0720729
240	0x3f7993c0	0.97491074
241	0x3f8137bf	1.0095137
242	0x3f746878	0.95471907
243	0x3f7005ee	0.9375905
244	0x3f8230a7	1.0171098
245	0x3f65cc40	0.89764786
246	0x3f7e507e	0.9934157
247	0x3f81b28c	1.0132613
248	0x3f820368	1.015729
249	0x3f855ae2	1.041836
250	0x3f7eb4b3	0.99494475
251	0x3f7ae3ec	0.9800403
252	0x3f800e3f	1.0004348
253	0x3f7c1b8d	0.9847954
254	0x3f6e18ca	0.93006575
255	0x3f840213	1.0313133

network.4.bias f4 [256]
0	0x3d8693b8	0.06571144
1	0xbccc0b01	-0.02490759
2	0x3da1031c	0.07861921
3	0x3e2cb88d	0.16867276
4	0x3cf91cb5	0.030409196
5	0x3d393a28	0.045221478
6	0x3cedcac5	0.029027352
7	0x3db24ed7	0.08706444
8	0xbdbea291	-0.09308351
9	0xbd6754e0	-0.056477427
10	0xbd09bf99	-0.033629987
11	0xbdf2f376	-0.11862843
12	0x3c261f5c	0.010139313
13	0x3dfd831e	0.12378524
14	0x3e3dd1ce	0.18537065
15	0xbccb9ea8	-0.024855927
16	0xb9e8ff1d	-0.00044440562
17	0x3dbfe2da	0.093694404
18	0x3cb3e6a0	0.021960557
19	0x3d940f71	0.07229508
20	0xbdd333a6	-0.103125855
21	0x3d0e9c6b	0.03481714
22	0xbd516f31	-0.05113143
23	0x3d8f1681	0.06986714
24	0xbd62f3d8	-0.05540833
25	0xbd6cea02	-0.057840355
26	0x3db6e7c7	0.08930927
27	0x3d87db3b	0.06633612
28	0xbcb2b35e	-0.021814045
29	0x3ca02b94	0.01955203
30	0xbcedf76a	-0.02904864
31	0x3de3ec92	0.111291066
32	0x3d7e83c5	0.062137384
33	0xbdba5996	-0.090991184
34	0x3df294ec	0.11844811
35	0x3dac7692	0.08421053
36	0x3c33a31b	0.01096418
37	0x3e025c22	0.12730458
38	0xbd2c8a16	-0.042123877
39	0x3dea6f80	0.11447048
40	0x3dd5fe87	0.10448938
41	0x3dec3d0d	0.11535082
42	0x3dc1d062	0.09463574
43	0x3db9c2e5	0.09070376
44	0x3d49270c	0.049109504
45	0x3e0d21c9	0.1378242
46	0x3df09705	0.11747555
47	0xbca1f182	-0.01976848
48	0xbd13e2c0	-0.036104918
49	0xbdd97cbb	-0.106194936
50	0x3d9b48b7	0.07582229
51	0x3ce8e77c	0.028430693
52	0xbc871aa5	-0.016492197
53	0xbd0e6db1	-0.03477258
54	0x3dc8d3f3	0.09806051
55	0x3de450e3	0.111482404
56	0x3e1a0f00	0.15044785
57	0x3df78bfd	0.120872475
58	0x3e53404a	0.20629993
59	0x3d18f5d0	0.0373438
60	0x3e20d7a4	0.1570726
61	0x3d456238	0.04818937
62	0x3e2dc4eb	0.1696965
63	0x3cb337e2	0.021877233
64	0x3e118253	0.14209871
65	0xbd4f7e59	-0.050657604
66	0x3dea282e	0.11433445
67	0x3cdfa9cf	0.02730265
68	0xbcec06cb	-0.028811833
69	0xbd71d0ec	-0.059037134
70	0xbcde3606	-0.02712537
71	0x3de4f944	0.11180356
72	0x3d894852	0.06703247
73	0x3d97fa25	0.07420758
74	0x3e00b956	0.125707
75	0x3dba19af	0.0908693
76	0x3dbd6a77	0.09248822
77	0x3c852fce	0.016258147
78	0x3d914e19	0.07094974
79	0x3dfa6271	0.122258075
80	0x3e09f95f	0.13474034
81	0x3da032be	0.07822178
82	0x3cebecb5	0.028799394
83	0x3e1ddc9b	0.15416186
84	0x3c8c52d1	0.017129334
85	0x3dd36946	0.10322814
86	0x3beab2dc	0.007162435
87	0x3de33f72	0.110960856
88	0xbbf26f40	-0.007398516
89	0x3dc534fb	0.09629246
90	0x3df66b8a	0.1203223
91	0x3c5b32ff	0.013378858
92	0x3dbc79eb	0.092029415
93	0x3b277724	0.002555319
94	0xbd39207a	-0.045196988
95	0x3d645dee	0.05575364
96	0x3da10353	0.07861962
97	0x3c676cc8	0.014125057
98	0x3d996bc3	0.07491257
99	0x3d874070	0.06604087
100	0xbd2f3b5f	-0.04278123
101	0x3d071515	0.03297909
102	0x3dabb60b	0.08384331
103	0x3db1652c	0.08661875
104	0x3dceec13	0.10103621
105	0xbc385090	-0.011249676
106	0x3e357aaf	0.17722581
107	0xbdc04c68	-0.09389573
108	0xbc4dfed0	-0.012572959
109	0xbbef5946	-0.0073043434
110	0x3db15f5e	0.08660768
111	0xbc96e4b4	-0.018419601
112	0x3df81161	0.1211269
113	0x3dfc4fbb	0.12319895
114	0x3dd396a1	0.103314646
115	0xbda45dc5	-0.080256976
116	0x3e001882	0.12509349
117	0x3de6e67b	0.112744294
118	0xbda6444b	-0.081184946
119	0x3e384a9b	0.1799721
120	0x3db571aa	0.0885957
121	0x3dbe66ff	0.09296989
122	0x3d4a6c19	0.049419496
123	0x3e06af65	0.13152845
124	0x3da299ec	0.079395145
125	0x3e09dc28	0.13462889
126	0x3dd721bd	0.10504482
127	0x3d501966	0.05080547
128	0x3e4caf26	0.19988689
129	0x3d098478	0.033573598
130	0x3e16e4ec	0.14735764
131	0xbd84444b	-0.06458338
132	0xbc29fce9	-0.01037524
133	0x3d8e9efb	0.06963917
134	0x3da20050	0.07910216
135	0x3cff995a	0.031201053
136	0xbdabca9b	-0.08388253
137	0x3db3a78b	0.08772191
138	0x3e0a09d7	0.13480316
139	0x3c0f4a58	0.008745752
140	0xbc9658d5	-0.018352905
141	0x3dd7e172	0.10541047
142	0xbd9fbfe6	-0.078002736
143	0x3d03f35e	0.032214515
144	0x3c7a6497	0.015282772
145	0x3d3cb3e8	0.04607001
146	0x3b757575	0.0037454043
147	0x3d7fa1e6	0.062410258
148	0x3dd9aea9	0.10629017
149	0x3ded0aff	0.11574363
150	0x3d85ea74	0.06538859
151	0x3d2d4130	0.042298496
152	0x3cefad9a	0.029257584
153	0x3e2cc96c	0.16873711
154	0x3db683c7	0.08911853
155	0x3da22d77	0.07918828
156	0x3e6d85fa	0.23195639
157	0x3da641e6	0.08118038
158	0xbd00de84	-0.031462207
159	0xbd27df3e	-0.040984385
160	0x3bffdfb8	0.007808652
161	0x3dfc3236	0.123142645
162	0x3d780715	0.06055363
163	0x3d250254	0.040285423
164	0x3dedf2a0	0.11618543
165	0xbd8a68df	-0.06758284
166	0x3ce6501c	0.028114371
167	0x3dfaf676	0.1225404
168	0x3d902271	0.07037819
169	0xbb978e02	-0.004625083
170	0xbdd6b352	-0.104834214
171	0x3dd8d410	0.10587323
172	0x3db27c46	0.087151095
173	0xbd08f279	-0.033434365
174	0xbd8118c6	-0.06303553
175	0x3e1bb32f	0.15205072
176	0x3e012427	0.12611447
177	0x3e5f84ea	0.21828046
178	0x3d309c12	0.04311759
179	0x3dafcb8b	0.085837446
180	0xbd93f844	-0.07225087
181	0x3d9d61f1	0.076846965
182	0x3d60d8c5	0.054894228
183	0x3e02f28c	0.12787837
184	0x3e06144b	0.13093679
185	0x3d89975e	0.06718324
186	0x3d04fb38	0.032466143
187	0x3d7b8d53	0.061414074
188	0x3d1237a6	0.0356976
189	0xbd643f4c	-0.055724427
190	0x3e1473fa	0.14497367
191	0xbc21df81	-0.009879948
192	0x3d2ebf23	0.04266275
193	0x3dfecce2	0.12441422
194	0xbd4668a7	-0.048439648
195	0x3e148187	0.14502536
196	0x3d9ff6eb	0.07810768
197	0x3de4e7ea	0.111770466
198	0x3cc950e2	0.0245747
199	0xba0da020	-0.00054025836
200	0xbb3dce5f	-0.0028962118
201	0x3c7cb807	0.015424735
202	0x3d7bf93b	0.06151698
203	0x3e1a3c5a	0.15062085
204	0x3db392af	0.08768212
205	0x3d24ee6e	0.040266447
206	0xbac11535	-0.0014731052
207	0x3c425662	0.011861416
208	0xbb58e822	-0.0033097346
209	0x3d7ac353	0.061221432
210	0x3dc6baee	0.09703623
211	0x3da51ee4	0.080625325
212	0x3d2c8083	0.042114746
213	0x3c8cdacb	0.017194172
214	0x3d9eb2ca	0.07748945
215	0x3e25df0a	0.16198364
216	0xbc4cbcfe	-0.012496231
217	0xba05b49b	-0.00051004597
218	0xbdb17dea	-0.08666594
219	0x3d0e1ce7	0.034695532
220	0xbd5851b1	-0.052812282
221	0x3dde29cd	0.108478166
222	0x3e150356	0.14552054
223	0x3d75a3a4	0.059970513
224	0x3dae33c8	0.0850597
225	0x3e3dbf1b	0.18529932
226	0x3cf4794b	0.029842993
227	0x3db270a9	0.087128945
228	0x3d873592	0.066020146
229	0x3e35ea85	0.17765243
230	0x3e250b09	0.16117491
231	0xbca1477f	-0.019687412
232	0x3d8cd97c	0.06877419
233	0xbdb12b04	-0.08650783
234	0xbc91e762	-0.017810527
235	0xbcf09642	-0.029368524
236	0xbc6a64cc	-0.014306258
237	0x3ddeed69	0.10885126
238	0x3da92170	0.08258331
239	0x3e3c6169	0.18396534
240	0x3dcb4060	0.09924388
241	0x3d4e00f5	0.05029388
242	0x3daafada	0.083486274
243	0x3d931a4d	0.07182751
244	0x3de82e3f	0.11336946
245	0x3da96693	0.082715176
246	0x3c7ef1d3	0.015560585
247	0x3e0968ce	0.13418886
248	0xbd715f16	-0.05892857
249	0xbd4e38d6	-0.05034717
250	0x3e1876db	0.1488909
251	0xbcf2ff57	-0.029662771
252	0x3e0bd59f	0.13655709
253	0x3d266e7b	0.040632706
254	0x3dfd7dba	0.12377496
255	0x3d0b759d	0.03404771

network.4.running_mean f4 [256]
0	0x3e651103	0.2236977
1	0x3d8d6354	0.06903711
2	0x3e4af560	0.19820166
3	0x3ea50162	0.32227618
4	0x3e29113c	0.1651048
5	0x3e2f8078	0.1713885
6	0x3e86bc57	0.26315567
7	0x3e5fa526	0.21840343
8	0x3e07c5f4	0.13259107
9	0x3e35ce7e	0.17754552
10	0x3d80128d	0.06253538
11	0x3d4b225d	0.04959332
12	0x3dba0054	0.09082094
13	0x3e236b24	0.1595884
14	0x3e3341ac	0.1750552
15	0x3e175fed	0.14782687
16	0x3d97985b	0.074021064
17	0x3e0999d0	0.13437581
18	0x3ea0f014	0.31433165
19	0x3deb8d83	0.115016006
20	0x3e179061	0.1480117
21	0x3dd69f81	0.10479642
22	0x3db846bb	0.08997866
23	0x3eccbda0	0.39988422
24	0x3e7336f8	0.23751438
25	0x3d257f8b	0.040404838
26	0x3e109ae1	0.14121582
27	0x3da7a051	0.08184875
28	0x3e8d9116	0.27649754
29	0x3e19bf88	0.1501447
30	0x3cd76eb0	0.026297897
31	0x3ecd2b71	0.40072206
32	0x3ea5fc48	0.32419038
33	0x3ce1c036	0.027557474
34	0x3e31c439	0.17360009
35	0x3e5dbc32	0.21653822
36	0x3da2682a	0.07930024
37	0x3d8b2c6c	0.06795582
38	0x3e2019e2	0.15634874
39	0x3e502a91	0.20328738
40	0x3d779df3	0.060453366
41	0x3e54064a	0.20705524
42	0x3d5cb5cd	0.053884316
43	0x3e288a46	0.16458997
44	0x3e5a8188	0.21338475
45	0x3dd5e269	0.10443575
46	0x3e1f3031	0.15545727
47	0x3e7baeb3	0.24578361
48	0x3e0713c8	0.1319114
49	0x3e0eb58b	0.1393644
50	0x3e1b5f62	0.15173104
51	0x3e06cafc	0.1316337
52	0x3e175303	0.1477776
53	0x3dd27101	0.1027546
54	0x3df5bd7b	0.11999031
55	0x3d64cb39	0.05585787
56	0x3e88c1d5	0.26710382
57	0x3e2cbeba	0.16869631
58	0x3e6e458c	0.23268718
59	0x3d2cdf2b	0.042205017
60	0x3e883e1e	0.26609892
61	0x3dd4c911	0.10389913
62	0x3e4d0a60	0.20023489
63	0x3e883fcc	0.26611173
64	0x3ea771fc	0.3270415
65	0x3e838158	0.2568462
66	0x3e0feab2	0.14054373
67	0x3e3b1870	0.18271041
68	0x3d5db7f8	0.054130524
69	0x3e635290	0.22199464
70	0x3d8bd4ec	0.06827721
71	0x3e4014d1	0.18757941
72	0x3d7649cd	0.060128976
73	0x3e0921b4	0.13391763
74	0x3e8deef1	0.2772136
75	0x3ea24f56	0.31701154
76	0x3e2fc0c6	0.17163381
77	0x3dd8364f	0.105572335
78	0x3e663813	0.22482328
79	0x3ee050f3	0.4381176
80	0x3e6d50b2	0.23175314
81	0x3ea23b3d	0.3168582
82	0x3e822b71	0.25423768
83	0x3e860781	0.261776
84	0x3e4002bd	0.18751045
85	0x3d8bc4b6	0.06824629
86	0x3dfba0cc	0.12286529
87	0x3e1f8f35	0.15581973
88	0x3e9cbc25	0.30612293
89	0x3d8aea17	0.0678293
90	0x3e2d06c5	0.16897114
91	0x3e139403	0.1441193
92	0x3e5b1a7f	0.21396826
93	0x3e881741	0.2658024
94	0x3e344755	0.17605336
95	0x3e9fec07	0.31234762
96	0x3e7e0891	0.24807955
97	0x3e18cdee	0.14922306
98	0x3e57bccb	0.21068113
99	0x3de58817	0.11207598
100	0x3e5a4135	0.21313937
101	0x3dd2c681	0.10291768
102	0x3e7018ac	0.23446912
103	0x3e7750c1	0.24151899
104	0x3e793697	0.2433723
105	0x3e86996d	0.2628893
106	0x3e659156	0.22418723
107	0x3de36e5f	0.11105036
108	0x3e009ab8	0.1255902
109	0x3d9aee4a	0.07564981
110	0x3e4b6cea	0.19865766
111	0x3d340a6a	0.043955244
112	0x3df126f6	0.11775009
113	0x3ebf4946	0.3736059
114	0x3e01f24e	0.12690088
115	0x3d7fe083	0.06246997
116	0x3e86c543	0.26322374
117	0x3e42fe09	0.19042219
118	0x3e90d4fc	0.28287494
119	0x3e975348	0.29555726
120	0x3e9b635a	0.30349237
121	0x3de86d31	0.113489516
122	0x3db9e0c5	0.090760745
123	0x3ebb45f2	0.36576802
124	0x3e10fbc3	0.1415854
125	0x3dc798dd	0.09745953
126	0x3e37f76b	0.17965476
127	0x3d13f7b7	0.03612491
128	0x3e794cd0	0.24345708
129	0x3e060dbc	0.13091177
130	0x3e64cc3b	0.22343533
131	0x3dc4e689	0.096142836
132	0x3d456d91	0.048200194
133	0x3d95d38f	0.07315742
134	0x3e5469b9	0.20743455
135	0x3e1540db	0.14575522
136	0x3e0ad01a	0.13555947
137	0x3e727853	0.23678713
138	0x3e602e19	0.21892585
139	0x3e39fcc1	0.18162824
140	0x3e14d570	0.14534545
141	0x3e8b629a	0.27223665
142	0x3da37889	0.07981975
143	0x3e372b79	0.17887677
144	0x3e0b0229	0.13575043
145	0x3e1a3cbb	0.1506223
146	0x3e2c7272	0.16840532
147	0x3e802e5a	0.25035363
148	0x3e2e6f20	0.17034578
149	0x3e9aed97	0.30259392
150	0x3dcf9a02	0.101367965
151	0x3de2da51	0.11076797
152	0x3e0d732a	0.13813463
153	0x3df8bf20	0.12145829
154	0x3dff8daa	0.12478192
155	0x3e012b0f	0.12614082
156	0x3deaf475	0.11472408
157	0x3dd668f2	0.104692355
158	0x3dfc590a	0.1232167
159	0x3d848f67	0.06472664
160	0x3da8e7df	0.08247351
161	0x3ea26a74	0.31721842
162	0x3e2f59ad	0.17124052
163	0x3e5a9b5c	0.21348327
164	0x3e70bfba	0.23510638
165	0x3e4b775e	0.19869754
166	0x3e76b3d6	0.2409204
167	0x3d3fe9dd	0.04685389
168	0x3dc3e78a	0.09565647
169	0x3e154d3d	0.14580245
170	0x3dc79957	0.09746044
171	0x3e23a7c0	0.1598196
172	0x3e38ae4a	0.18035236
173	0x3e26b9d7	0.1628183
174	0x3ddc104b	0.10745295
175	0x3e4abdfa	0.19799033
176	0x3e68413a	0.22681132
177	0x3e564c23	0.20927481
178	0x3d8f11d1	0.0698582
179	0x3e5a5c36	0.21324238
180	0x3de53ef1	0.11193646
181	0x3de76506	0.112985656
182	0x3d7e54bb	0.062092524
183	0x3e90f919	0.28315046
184	0x3e7be0c5	0.24597462
185	0x3e6393fe	0.22224423
186	0x3ddcdb89	0.107840605
187	0x3da2a8ec	0.079423755
188	0x3e973c25	0.29538074
189	0x3e426923	0.18985419
190	0x3ee4f634	0.44719088
191	0x3de09a10	0.10966885
192	0x3e0a32b1	0.134959
193	0x3e224c7b	0.15849487
194	0x3e82f23d	0.25575438
195	0x3e3459e1	0.17612411
196	0x3dcb0897	0.09913748
197	0x3e6cfe2e	0.23143837
198	0x3e8692cb	0.2628387
199	0x3ddc2878	0.10749906
200	0x3dd00c40	0.101585865
201	0x3d15ed9e	0.036603563
202	0x3d2337bb	0.03984807
203	0x3d734ef9	0.059401486
204	0x3e3724dc	0.17885154
205	0x3e06f219	0.1317829
206	0x3ddd9fbc	0.108214825
207	0x3e3e469c	0.18581623
208	0x3e75c555	0.24001057
209	0x3da32f2c	0.07967982
210	0x3e3cd702	0.18441394
211	0x3e534a90	0.20633912
212	0x3e1827ed	0.1485898
213	0x3e0cbd2c	0.13744038
214	0x3e115dd1	0.14195944
215	0x3e3b0583	0.18263821
216	0x3de23805	0.11045841
217	0x3e0bd7d8	0.13656557
218	0x3e263585	0.16231354
219	0x3dc50839	0.09620709
220	0x3dabe438	0.08393139
221	0x3df1b4d1	0.11802066
222	0x3e0381f5	0.12842543
223	0x3dca62bd	0.09882114
224	0x3dc97f66	0.098387524
225	0x3e0e8292	0.13916996
226	0x3e133c5f	0.14378498
227	0x3e3f91b9	0.18707933
228	0x3d9b1933	0.07573166
229	0x3e2c6b43	0.16837792
230	0x3d340e4f	0.04395896
231	0x3cf70ef9	0.030158507
232	0x3e64523f	0.22297
233	0x3e1ee67c	0.1551761
234	0x3e498197	0.19678341
235	0x3e67541b	0.22590677
236	0x3e728321	0.23682834
237	0x3e9dc45c	0.30813873
238	0x3e8abad3	0.2709566
239	0x3d825f77	0.06365865
240	0x3dc63dc5	0.0967975
241	0x3e14881a	0.14505044
242	0x3db31893	0.087449215
243	0x3e6ed265	0.23322447
244	0x3e7e3bf5	0.2482756
245	0x3e850513	0.25980434
246	0x3df7d408	0.121009886
247	0x3deab506	0.11460309
248	0x3e00befa	0.12572852
249	0x3d881bde	0.0664594
250	0x3e33b646	0.1755
251	0x3e3b10dc	0.1826815
252	0x3e8647b0	0.26226568
253	0x3df5fe0b	0.120113455
254	0x3ea2a6d8	0.31767917
255	0x3e4fcf3a	0.20293894

network.4.running_var f4 [256]
0	0x3e8ef918	0.27924418
1	0x3d42fac3	0.047602426
2	0x3e5f29a3	0.21793227
3	0x3f110b01	0.56657416
4	0x3e37bef6	0.1794394
5	0x3e5d1a0d	0.21591969
6	0x3ecc32ed	0.39882603
7	0x3e89b696	0.26897115
8	0x3dcecccc	0.10097656
9	0x3df0b5ef	0.11753451
10	0x3d402853	0.046913456
11	0x3cbd6ac2	0.023122195
12	0x3dba5005	0.09097294
13	0x3e564b5a	0.20927182
14	0x3e72f238	0.23725212
15	0x3e21296e	0.1573846
16	0x3d6f708f	0.058456954
17	0x3e49c6cd	0.19704743
18	0x3ef719b9	0.48261812
19	0x3e47452e	0.19459984
20	0x3decdbb9	0.11565346
21	0x3e0229d4	0.12711269
22	0x3d5c789b	0.053825956
23	0x3f4cb67e	0.7996596
24	0x3e823734	0.25432742
25	0x3c8ee04f	0.017440943
26	0x3e270b81	0.16312982
27	0x3d7dfaf2	0.0620069
28	0x3e3f1c7b	0.18663208
29	0x3e70da14	0.2352069
30	0x3c39b6d8	0.011335097
31	0x3f1c73d4	0.6111424
32	0x3ee33607	0.44377157
33	0x3c303bd0	0.010756448
34	0x3e9ff6b9	0.31242922
35	0x3e9814ad	0.29703274
36	0x3d4dbd23	0.050229203
37	0x3d93da5e	0.072193846
38	0x3dd86e4d	0.10567913
39	0x3e9a5471	0.3014255
40	0x3d878ce6	0.06618671
41	0x3e696fea	0.22796598
42	0x3dc7f7ec	0.09764084
43	0x3e9d587a	0.30731565
44	0x3e8c63af	0.27419803
45	0x3e0bce61	0.13652946
46	0x3e0dbfbc	0.13842672
47	0x3e946d1d	0.28989497
48	0x3debdf3e	0.115171894
49	0x3e16d43c	0.14729398
50	0x3e8275cc	0.25480497
51	0x3e1eef37	0.1552094
52	0x3de67cf2	0.112543
53	0x3d8c7274	0.06857768
54	0x3e052809	0.13003553
55	0x3d459cc5	0.04824521
56	0x3eb7d004	0.3590089
57	0x3e583259	0.21112956
58	0x3ed8a76a	0.42315227
59	0x3d27bf94	0.040954188
60	0x3ef6895d	0.48151675
61	0x3dc87c62	0.09789349
62	0x3e4aee31	0.19817425
63	0x3f246e0c	0.6423042
64	0x3f25fb01	0.64836127
65	0x3ea4e158	0.32203174
66	0x3e42cfdf	0.19024609
67	0x3e6a8301	0.22901537
68	0x3cd8c6c1	0.02646196
69	0x3e237dcc	0.15965956
70	0x3d13e837	0.03611013
71	0x3e8917af	0.26775882
72	0x3d4088f5	0.047005612
73	0x3dd6c15f	0.10486101
74	0x3eafced5	0.34337488
75	0x3f085c10	0.53265476
76	0x3e50db2e	0.2039611
77	0x3db67afa	0.08910175
78	0x3e6fd949	0.23422731
79	0x3f2480e9	0.642592
80	0x3ebfd6db	0.3746861
81	0x3f061a93	0.523843
82	0x3ef85291	0.48500493
83	0x3e71ad4a	0.23601261
84	0x3e3435d5	0.1759866
85	0x3d3000fe	0.042969696
86	0x3e08df13	0.13366346
87	0x3e458345	0.19288357
88	0x3ecd2b95	0.40072313
89	0x3dc3d7fc	0.0956268
90	0x3e5e76c9	0.21725
91	0x3e036fcf	0.1283562
92	0x3eb24b2a	0.3482297
93	0x3f23a368	0.63921213
94	0x3df4c216	0.119510815
95	0x3ed8151d	0.42203608
96	0x3ed1c0ba	0.4096735
97	0x3e19ab12	0.15006664
98	0x3e736aae	0.23771164
99	0x3e17e41d	0.14833112
100	0x3e5709dd	0.20999856
101	0x3dababab	0.083823524
102	0x3ed44187	0.41456243
103	0x3e969e55	0.29417673
104	0x3e9ee0be	0.3103084
105	0x3ebd2e8f	0.36949584
106	0x3e810968	0.2520249
107	0x3da391d7	0.07986801
108	0x3ddba289	0.107243605
109	0x3d48d78d	0.04903369
110	0x3ea8e301	0.3298569
111	0x3cbe0727	0.02319677
112	0x3de335b7	0.1109423
113	0x3f3d6062	0.73975194
114	0x3e03b842	0.12863258
115	0x3cdd0a89	0.026982563
116	0x3ee88a0d	0.45417824
117	0x3e751d7a	0.23937026
118	0x3ebd8b8d	0.3702053
119	0x3f048bfe	0.5177611
120	0x3ecac0fe	0.39600366
121	0x3e28ea50	0.16495633
122	0x3dac449b	0.08411523
123	0x3ef08e76	0.4698369
124	0x3e3e68ea	0.18594709
125	0x3dd512fd	0.10404012
126	0x3e3dfa01	0.185524
127	0x3cd4d762	0.025981609
128	0x3ec38878	0.38190055
129	0x3e0c614d	0.13708992
130	0x3eb49dfe	0.35276788
131	0x3d811b98	0.06304091
132	0x3cceed6e	0.0252597
133	0x3d56f512	0.05247981
134	0x3ea3a417	0.31961128
135	0x3e26ba87	0.16282092
136	0x3dee1be3	0.11626413
137	0x3ec1ccab	0.37851462
138	0x3e84852d	0.25882855
139	0x3e175403	0.14778142
140	0x3e119ca7	0.14219914
141	0x3f068b05	0.52555877
142	0x3d3230f0	0.0435037
143	0x3e382f54	0.17986804
144	0x3d842834	0.06452981
145	0x3df7d50a	0.12101181
146	0x3e5f7f48	0.21825898
147	0x3ee9e859	0.4568508
148	0x3e4d0077	0.20019709
149	0x3f12dbba	0.57366526
150	0x3d9a6abe	0.07539891
151	0x3df2cab2	0.11855067
152	0x3e045489	0.12922873
153	0x3e7553ad	0.23957701
154	0x3e05785c	0.13034195
155	0x3e1ec951	0.15506484
156	0x3e3fd9d7	0.18735443
157	0x3df5b5b1	0.119975455
158	0x3daf90ca	0.08572538
159	0x3d33c3e9	0.043888006
160	0x3d5cb18d	0.053880263
161	0x3eaf245e	0.34207433
162	0x3e20a1b3	0.15686683
163	0x3e25785d	0.16159196
164	0x3e85c0ff	0.26123807
165	0x3e2b6a0c	0.16739672
166	0x3e96f087	0.29480383
167	0x3d433418	0.047657102
168	0x3e15e9a5	0.1463991
169	0x3e457210	0.19281793
170	0x3dc6300c	0.09677133
171	0x3e3861d0	0.18006063
172	0x3e34a42d	0.17640753
173	0x3e56cd33	0.20976715
174	0x3d8e5224	0.06949261
175	0x3e980fea	0.2969964
176	0x3edab539	0.42716387
177	0x3e795e12	0.24352291
178	0x3d53f11e	0.05174362
179	0x3e655b7b	0.22398178
180	0x3d934aab	0.07191976
181	0x3e1a2e1b	0.1505665
182	0x3d462c71	0.048382226
183	0x3ee6704a	0.45007545
184	0x3e905389	0.28188732
185	0x3e8a8f2d	0.2706236
186	0x3e0f5d31	0.14000393
187	0x3da5fd8e	0.08105002
188	0x3f0975dc	0.53695464
189	0x3e31fe98	0.17382276
190	0x3f45594d	0.7708939
191	0x3dcd112d	0.10013042
192	0x3db0130d	0.08597384
193	0x3e4340ff	0.19067763
194	0x3eb30e9a	0.34972078
195	0x3e802cc6	0.2503416
196	0x3db0b861	0.086289175
197	0x3e88e23a	0.26735097
198	0x3e86749a	0.26260835
199	0x3db316b0	0.08744562
200	0x3da37122	0.07980563
201	0x3cd72ed8	0.026267454
202	0x3d218507	0.039433505
203	0x3d056972	0.032571264
204	0x3e10bcc2	0.14134505
205	0x3dfff253	0.124973916
206	0x3d9a3c4c	0.07531032
207	0x3e8b8871	0.27252534
208	0x3e903088	0.28162026
209	0x3d795bf6	0.060878716
210	0x3e2fc576	0.17165169
211	0x3e281c77	0.16417108
212	0x3e848d0c	0.2588886
213	0x3e2d8068	0.16943514
214	0x3e446166	0.1917778
215	0x3e2885ea	0.16457334
216	0x3d98ceae	0.07461296
217	0x3e4a9550	0.1978352
218	0x3e366b3e	0.17814347
219	0x3d954ae5	0.072896756
220	0x3d756800	0.059913635
221	0x3e0bb75c	0.13644165
222	0x3ddbdc15	0.10735337
223	0x3dca4b8c	0.09877691
224	0x3da77bc7	0.081779055
225	0x3e6fd7d2	0.23422173
226	0x3df3d388	0.11905581
227	0x3e7d3741	0.24728109
228	0x3d8822ae	0.066472396
229	0x3e5c7d4b	0.2153217
230	0x3d046370	0.032321393
231	0x3c37bc37	0.0112143075
232	0x3e62b150	0.22137952
233	0x3df09c29	0.11748535
234	0x3e573e12	0.21019772
235	0x3e90d802	0.282898
236	0x3e8f8a86	0.28035372
237	0x3f10cc28	0.5656152
238	0x3ecb744a	0.3973716
239	0x3d8d7756	0.06907527
240	0x3dd43241	0.10361148
241	0x3e543ecb	0.20727079
242	0x3d8aa59a	0.06769867
243	0x3ecfab06	0.40560168
244	0x3ea1a92a	0.31574374
245	0x3e9bb88b	0.30414233
246	0x3dc461db	0.09588977
247	0x3e019a89	0.12656607
248	0x3d9a4b98	0.075339496
249	0x3d0b1b3b	0.033961516
250	0x3e5d963b	0.2163934
251	0x3e133e8d	0.1437933
252	0x3ebc8432	0.36819607
253	0x3db47e94	0.08813205
254	0x3ef151bf	0.4713268
255	0x3e7650c5	0.24054249
